{
  "nodes": [
    {
      "op": "null", 
      "name": "data", 
      "inputs": []
    }, 
    {
      "op": "_copy", 
      "name": "id", 
      "inputs": [[0, 0, 0]]
    }, 
    {
      "op": "null", 
      "name": "in_stem_conv1_3*3_conv2d_weight", 
      "attrs": {
        "kernel": "(3, 3)", 
        "no_bias": "True", 
        "num_filter": "32", 
        "pad": "(0, 0)", 
        "stride": "(2, 2)"
      }, 
      "inputs": []
    }, 
    {
      "op": "Convolution", 
      "name": "in_stem_conv1_3*3_conv2d", 
      "attrs": {
        "kernel": "(3, 3)", 
        "no_bias": "True", 
        "num_filter": "32", 
        "pad": "(0, 0)", 
        "stride": "(2, 2)"
      }, 
      "inputs": [[1, 0, 0], [2, 0, 0]]
    }, 
    {
      "op": "null", 
      "name": "in_stem_conv1_3*3_batchnorm_gamma", 
      "attrs": {"fix_gamma": "True"}, 
      "inputs": []
    }, 
    {
      "op": "null", 
      "name": "in_stem_conv1_3*3_batchnorm_beta", 
      "attrs": {"fix_gamma": "True"}, 
      "inputs": []
    }, 
    {
      "op": "null", 
      "name": "in_stem_conv1_3*3_batchnorm_moving_mean", 
      "attrs": {
        "__init__": "[\"zero\", {}]", 
        "fix_gamma": "True"
      }, 
      "inputs": []
    }, 
    {
      "op": "null", 
      "name": "in_stem_conv1_3*3_batchnorm_moving_var", 
      "attrs": {
        "__init__": "[\"one\", {}]", 
        "fix_gamma": "True"
      }, 
      "inputs": []
    }, 
    {
      "op": "BatchNorm", 
      "name": "in_stem_conv1_3*3_batchnorm", 
      "attrs": {"fix_gamma": "True"}, 
      "inputs": [[3, 0, 0], [4, 0, 0], [5, 0, 0], [6, 0, 1], [7, 0, 1]]
    }, 
    {
      "op": "Activation", 
      "name": "in_stem_conv1_3*3_relu", 
      "attrs": {"act_type": "relu"}, 
      "inputs": [[8, 0, 0]]
    }, 
    {
      "op": "null", 
      "name": "in_stem_conv2_3*3_conv2d_weight", 
      "attrs": {
        "kernel": "(3, 3)", 
        "no_bias": "True", 
        "num_filter": "32", 
        "pad": "(0, 0)", 
        "stride": "(1, 1)"
      }, 
      "inputs": []
    }, 
    {
      "op": "Convolution", 
      "name": "in_stem_conv2_3*3_conv2d", 
      "attrs": {
        "kernel": "(3, 3)", 
        "no_bias": "True", 
        "num_filter": "32", 
        "pad": "(0, 0)", 
        "stride": "(1, 1)"
      }, 
      "inputs": [[9, 0, 0], [10, 0, 0]]
    }, 
    {
      "op": "null", 
      "name": "in_stem_conv2_3*3_batchnorm_gamma", 
      "attrs": {"fix_gamma": "True"}, 
      "inputs": []
    }, 
    {
      "op": "null", 
      "name": "in_stem_conv2_3*3_batchnorm_beta", 
      "attrs": {"fix_gamma": "True"}, 
      "inputs": []
    }, 
    {
      "op": "null", 
      "name": "in_stem_conv2_3*3_batchnorm_moving_mean", 
      "attrs": {
        "__init__": "[\"zero\", {}]", 
        "fix_gamma": "True"
      }, 
      "inputs": []
    }, 
    {
      "op": "null", 
      "name": "in_stem_conv2_3*3_batchnorm_moving_var", 
      "attrs": {
        "__init__": "[\"one\", {}]", 
        "fix_gamma": "True"
      }, 
      "inputs": []
    }, 
    {
      "op": "BatchNorm", 
      "name": "in_stem_conv2_3*3_batchnorm", 
      "attrs": {"fix_gamma": "True"}, 
      "inputs": [[11, 0, 0], [12, 0, 0], [13, 0, 0], [14, 0, 1], [15, 0, 1]]
    }, 
    {
      "op": "Activation", 
      "name": "in_stem_conv2_3*3_relu", 
      "attrs": {"act_type": "relu"}, 
      "inputs": [[16, 0, 0]]
    }, 
    {
      "op": "null", 
      "name": "in_stem_conv3_3*3_conv2d_weight", 
      "attrs": {
        "kernel": "(3, 3)", 
        "no_bias": "True", 
        "num_filter": "64", 
        "pad": "(1, 1)", 
        "stride": "(1, 1)"
      }, 
      "inputs": []
    }, 
    {
      "op": "Convolution", 
      "name": "in_stem_conv3_3*3_conv2d", 
      "attrs": {
        "kernel": "(3, 3)", 
        "no_bias": "True", 
        "num_filter": "64", 
        "pad": "(1, 1)", 
        "stride": "(1, 1)"
      }, 
      "inputs": [[17, 0, 0], [18, 0, 0]]
    }, 
    {
      "op": "null", 
      "name": "in_stem_conv3_3*3_batchnorm_gamma", 
      "attrs": {"fix_gamma": "True"}, 
      "inputs": []
    }, 
    {
      "op": "null", 
      "name": "in_stem_conv3_3*3_batchnorm_beta", 
      "attrs": {"fix_gamma": "True"}, 
      "inputs": []
    }, 
    {
      "op": "null", 
      "name": "in_stem_conv3_3*3_batchnorm_moving_mean", 
      "attrs": {
        "__init__": "[\"zero\", {}]", 
        "fix_gamma": "True"
      }, 
      "inputs": []
    }, 
    {
      "op": "null", 
      "name": "in_stem_conv3_3*3_batchnorm_moving_var", 
      "attrs": {
        "__init__": "[\"one\", {}]", 
        "fix_gamma": "True"
      }, 
      "inputs": []
    }, 
    {
      "op": "BatchNorm", 
      "name": "in_stem_conv3_3*3_batchnorm", 
      "attrs": {"fix_gamma": "True"}, 
      "inputs": [[19, 0, 0], [20, 0, 0], [21, 0, 0], [22, 0, 1], [23, 0, 1]]
    }, 
    {
      "op": "Activation", 
      "name": "in_stem_conv3_3*3_relu", 
      "attrs": {"act_type": "relu"}, 
      "inputs": [[24, 0, 0]]
    }, 
    {
      "op": "Pooling", 
      "name": "in_stem_maxpool_1", 
      "attrs": {
        "kernel": "(3, 3)", 
        "pool_type": "max", 
        "stride": "(2, 2)"
      }, 
      "inputs": [[25, 0, 0]]
    }, 
    {
      "op": "null", 
      "name": "in_stem_conv4_3*3_conv2d_weight", 
      "attrs": {
        "kernel": "(3, 3)", 
        "no_bias": "True", 
        "num_filter": "96", 
        "pad": "(0, 0)", 
        "stride": "(2, 2)"
      }, 
      "inputs": []
    }, 
    {
      "op": "Convolution", 
      "name": "in_stem_conv4_3*3_conv2d", 
      "attrs": {
        "kernel": "(3, 3)", 
        "no_bias": "True", 
        "num_filter": "96", 
        "pad": "(0, 0)", 
        "stride": "(2, 2)"
      }, 
      "inputs": [[25, 0, 0], [27, 0, 0]]
    }, 
    {
      "op": "null", 
      "name": "in_stem_conv4_3*3_batchnorm_gamma", 
      "attrs": {"fix_gamma": "True"}, 
      "inputs": []
    }, 
    {
      "op": "null", 
      "name": "in_stem_conv4_3*3_batchnorm_beta", 
      "attrs": {"fix_gamma": "True"}, 
      "inputs": []
    }, 
    {
      "op": "null", 
      "name": "in_stem_conv4_3*3_batchnorm_moving_mean", 
      "attrs": {
        "__init__": "[\"zero\", {}]", 
        "fix_gamma": "True"
      }, 
      "inputs": []
    }, 
    {
      "op": "null", 
      "name": "in_stem_conv4_3*3_batchnorm_moving_var", 
      "attrs": {
        "__init__": "[\"one\", {}]", 
        "fix_gamma": "True"
      }, 
      "inputs": []
    }, 
    {
      "op": "BatchNorm", 
      "name": "in_stem_conv4_3*3_batchnorm", 
      "attrs": {"fix_gamma": "True"}, 
      "inputs": [[28, 0, 0], [29, 0, 0], [30, 0, 0], [31, 0, 1], [32, 0, 1]]
    }, 
    {
      "op": "Activation", 
      "name": "in_stem_conv4_3*3_relu", 
      "attrs": {"act_type": "relu"}, 
      "inputs": [[33, 0, 0]]
    }, 
    {
      "op": "Concat", 
      "name": "in_stem_concat_1", 
      "attrs": {"num_args": "2"}, 
      "inputs": [[26, 0, 0], [34, 0, 0]]
    }, 
    {
      "op": "null", 
      "name": "in_stem_conv5_1*1_conv2d_weight", 
      "attrs": {
        "kernel": "(1, 1)", 
        "no_bias": "True", 
        "num_filter": "64", 
        "pad": "(0, 0)", 
        "stride": "(1, 1)"
      }, 
      "inputs": []
    }, 
    {
      "op": "Convolution", 
      "name": "in_stem_conv5_1*1_conv2d", 
      "attrs": {
        "kernel": "(1, 1)", 
        "no_bias": "True", 
        "num_filter": "64", 
        "pad": "(0, 0)", 
        "stride": "(1, 1)"
      }, 
      "inputs": [[35, 0, 0], [36, 0, 0]]
    }, 
    {
      "op": "null", 
      "name": "in_stem_conv5_1*1_batchnorm_gamma", 
      "attrs": {"fix_gamma": "True"}, 
      "inputs": []
    }, 
    {
      "op": "null", 
      "name": "in_stem_conv5_1*1_batchnorm_beta", 
      "attrs": {"fix_gamma": "True"}, 
      "inputs": []
    }, 
    {
      "op": "null", 
      "name": "in_stem_conv5_1*1_batchnorm_moving_mean", 
      "attrs": {
        "__init__": "[\"zero\", {}]", 
        "fix_gamma": "True"
      }, 
      "inputs": []
    }, 
    {
      "op": "null", 
      "name": "in_stem_conv5_1*1_batchnorm_moving_var", 
      "attrs": {
        "__init__": "[\"one\", {}]", 
        "fix_gamma": "True"
      }, 
      "inputs": []
    }, 
    {
      "op": "BatchNorm", 
      "name": "in_stem_conv5_1*1_batchnorm", 
      "attrs": {"fix_gamma": "True"}, 
      "inputs": [[37, 0, 0], [38, 0, 0], [39, 0, 0], [40, 0, 1], [41, 0, 1]]
    }, 
    {
      "op": "Activation", 
      "name": "in_stem_conv5_1*1_relu", 
      "attrs": {"act_type": "relu"}, 
      "inputs": [[42, 0, 0]]
    }, 
    {
      "op": "null", 
      "name": "in_stem_conv6_3*3_conv2d_weight", 
      "attrs": {
        "kernel": "(3, 3)", 
        "no_bias": "True", 
        "num_filter": "96", 
        "pad": "(0, 0)", 
        "stride": "(1, 1)"
      }, 
      "inputs": []
    }, 
    {
      "op": "Convolution", 
      "name": "in_stem_conv6_3*3_conv2d", 
      "attrs": {
        "kernel": "(3, 3)", 
        "no_bias": "True", 
        "num_filter": "96", 
        "pad": "(0, 0)", 
        "stride": "(1, 1)"
      }, 
      "inputs": [[43, 0, 0], [44, 0, 0]]
    }, 
    {
      "op": "null", 
      "name": "in_stem_conv6_3*3_batchnorm_gamma", 
      "attrs": {"fix_gamma": "True"}, 
      "inputs": []
    }, 
    {
      "op": "null", 
      "name": "in_stem_conv6_3*3_batchnorm_beta", 
      "attrs": {"fix_gamma": "True"}, 
      "inputs": []
    }, 
    {
      "op": "null", 
      "name": "in_stem_conv6_3*3_batchnorm_moving_mean", 
      "attrs": {
        "__init__": "[\"zero\", {}]", 
        "fix_gamma": "True"
      }, 
      "inputs": []
    }, 
    {
      "op": "null", 
      "name": "in_stem_conv6_3*3_batchnorm_moving_var", 
      "attrs": {
        "__init__": "[\"one\", {}]", 
        "fix_gamma": "True"
      }, 
      "inputs": []
    }, 
    {
      "op": "BatchNorm", 
      "name": "in_stem_conv6_3*3_batchnorm", 
      "attrs": {"fix_gamma": "True"}, 
      "inputs": [[45, 0, 0], [46, 0, 0], [47, 0, 0], [48, 0, 1], [49, 0, 1]]
    }, 
    {
      "op": "Activation", 
      "name": "in_stem_conv6_3*3_relu", 
      "attrs": {"act_type": "relu"}, 
      "inputs": [[50, 0, 0]]
    }, 
    {
      "op": "null", 
      "name": "in_stem_conv7_1*1_conv2d_weight", 
      "attrs": {
        "kernel": "(1, 1)", 
        "no_bias": "True", 
        "num_filter": "64", 
        "pad": "(0, 0)", 
        "stride": "(1, 1)"
      }, 
      "inputs": []
    }, 
    {
      "op": "Convolution", 
      "name": "in_stem_conv7_1*1_conv2d", 
      "attrs": {
        "kernel": "(1, 1)", 
        "no_bias": "True", 
        "num_filter": "64", 
        "pad": "(0, 0)", 
        "stride": "(1, 1)"
      }, 
      "inputs": [[35, 0, 0], [52, 0, 0]]
    }, 
    {
      "op": "null", 
      "name": "in_stem_conv7_1*1_batchnorm_gamma", 
      "attrs": {"fix_gamma": "True"}, 
      "inputs": []
    }, 
    {
      "op": "null", 
      "name": "in_stem_conv7_1*1_batchnorm_beta", 
      "attrs": {"fix_gamma": "True"}, 
      "inputs": []
    }, 
    {
      "op": "null", 
      "name": "in_stem_conv7_1*1_batchnorm_moving_mean", 
      "attrs": {
        "__init__": "[\"zero\", {}]", 
        "fix_gamma": "True"
      }, 
      "inputs": []
    }, 
    {
      "op": "null", 
      "name": "in_stem_conv7_1*1_batchnorm_moving_var", 
      "attrs": {
        "__init__": "[\"one\", {}]", 
        "fix_gamma": "True"
      }, 
      "inputs": []
    }, 
    {
      "op": "BatchNorm", 
      "name": "in_stem_conv7_1*1_batchnorm", 
      "attrs": {"fix_gamma": "True"}, 
      "inputs": [[53, 0, 0], [54, 0, 0], [55, 0, 0], [56, 0, 1], [57, 0, 1]]
    }, 
    {
      "op": "Activation", 
      "name": "in_stem_conv7_1*1_relu", 
      "attrs": {"act_type": "relu"}, 
      "inputs": [[58, 0, 0]]
    }, 
    {
      "op": "null", 
      "name": "in_stem_conv8_7*1_conv2d_weight", 
      "attrs": {
        "kernel": "(7, 1)", 
        "no_bias": "True", 
        "num_filter": "64", 
        "pad": "(3, 0)", 
        "stride": "(1, 1)"
      }, 
      "inputs": []
    }, 
    {
      "op": "Convolution", 
      "name": "in_stem_conv8_7*1_conv2d", 
      "attrs": {
        "kernel": "(7, 1)", 
        "no_bias": "True", 
        "num_filter": "64", 
        "pad": "(3, 0)", 
        "stride": "(1, 1)"
      }, 
      "inputs": [[59, 0, 0], [60, 0, 0]]
    }, 
    {
      "op": "null", 
      "name": "in_stem_conv8_7*1_batchnorm_gamma", 
      "attrs": {"fix_gamma": "True"}, 
      "inputs": []
    }, 
    {
      "op": "null", 
      "name": "in_stem_conv8_7*1_batchnorm_beta", 
      "attrs": {"fix_gamma": "True"}, 
      "inputs": []
    }, 
    {
      "op": "null", 
      "name": "in_stem_conv8_7*1_batchnorm_moving_mean", 
      "attrs": {
        "__init__": "[\"zero\", {}]", 
        "fix_gamma": "True"
      }, 
      "inputs": []
    }, 
    {
      "op": "null", 
      "name": "in_stem_conv8_7*1_batchnorm_moving_var", 
      "attrs": {
        "__init__": "[\"one\", {}]", 
        "fix_gamma": "True"
      }, 
      "inputs": []
    }, 
    {
      "op": "BatchNorm", 
      "name": "in_stem_conv8_7*1_batchnorm", 
      "attrs": {"fix_gamma": "True"}, 
      "inputs": [[61, 0, 0], [62, 0, 0], [63, 0, 0], [64, 0, 1], [65, 0, 1]]
    }, 
    {
      "op": "Activation", 
      "name": "in_stem_conv8_7*1_relu", 
      "attrs": {"act_type": "relu"}, 
      "inputs": [[66, 0, 0]]
    }, 
    {
      "op": "null", 
      "name": "in_stem_conv9_1*7_conv2d_weight", 
      "attrs": {
        "kernel": "(1, 7)", 
        "no_bias": "True", 
        "num_filter": "64", 
        "pad": "(0, 3)", 
        "stride": "(1, 1)"
      }, 
      "inputs": []
    }, 
    {
      "op": "Convolution", 
      "name": "in_stem_conv9_1*7_conv2d", 
      "attrs": {
        "kernel": "(1, 7)", 
        "no_bias": "True", 
        "num_filter": "64", 
        "pad": "(0, 3)", 
        "stride": "(1, 1)"
      }, 
      "inputs": [[67, 0, 0], [68, 0, 0]]
    }, 
    {
      "op": "null", 
      "name": "in_stem_conv9_1*7_batchnorm_gamma", 
      "attrs": {"fix_gamma": "True"}, 
      "inputs": []
    }, 
    {
      "op": "null", 
      "name": "in_stem_conv9_1*7_batchnorm_beta", 
      "attrs": {"fix_gamma": "True"}, 
      "inputs": []
    }, 
    {
      "op": "null", 
      "name": "in_stem_conv9_1*7_batchnorm_moving_mean", 
      "attrs": {
        "__init__": "[\"zero\", {}]", 
        "fix_gamma": "True"
      }, 
      "inputs": []
    }, 
    {
      "op": "null", 
      "name": "in_stem_conv9_1*7_batchnorm_moving_var", 
      "attrs": {
        "__init__": "[\"one\", {}]", 
        "fix_gamma": "True"
      }, 
      "inputs": []
    }, 
    {
      "op": "BatchNorm", 
      "name": "in_stem_conv9_1*7_batchnorm", 
      "attrs": {"fix_gamma": "True"}, 
      "inputs": [[69, 0, 0], [70, 0, 0], [71, 0, 0], [72, 0, 1], [73, 0, 1]]
    }, 
    {
      "op": "Activation", 
      "name": "in_stem_conv9_1*7_relu", 
      "attrs": {"act_type": "relu"}, 
      "inputs": [[74, 0, 0]]
    }, 
    {
      "op": "null", 
      "name": "in_stem_conv10_3*3_conv2d_weight", 
      "attrs": {
        "kernel": "(3, 3)", 
        "no_bias": "True", 
        "num_filter": "96", 
        "pad": "(0, 0)", 
        "stride": "(1, 1)"
      }, 
      "inputs": []
    }, 
    {
      "op": "Convolution", 
      "name": "in_stem_conv10_3*3_conv2d", 
      "attrs": {
        "kernel": "(3, 3)", 
        "no_bias": "True", 
        "num_filter": "96", 
        "pad": "(0, 0)", 
        "stride": "(1, 1)"
      }, 
      "inputs": [[75, 0, 0], [76, 0, 0]]
    }, 
    {
      "op": "null", 
      "name": "in_stem_conv10_3*3_batchnorm_gamma", 
      "attrs": {"fix_gamma": "True"}, 
      "inputs": []
    }, 
    {
      "op": "null", 
      "name": "in_stem_conv10_3*3_batchnorm_beta", 
      "attrs": {"fix_gamma": "True"}, 
      "inputs": []
    }, 
    {
      "op": "null", 
      "name": "in_stem_conv10_3*3_batchnorm_moving_mean", 
      "attrs": {
        "__init__": "[\"zero\", {}]", 
        "fix_gamma": "True"
      }, 
      "inputs": []
    }, 
    {
      "op": "null", 
      "name": "in_stem_conv10_3*3_batchnorm_moving_var", 
      "attrs": {
        "__init__": "[\"one\", {}]", 
        "fix_gamma": "True"
      }, 
      "inputs": []
    }, 
    {
      "op": "BatchNorm", 
      "name": "in_stem_conv10_3*3_batchnorm", 
      "attrs": {"fix_gamma": "True"}, 
      "inputs": [[77, 0, 0], [78, 0, 0], [79, 0, 0], [80, 0, 1], [81, 0, 1]]
    }, 
    {
      "op": "Activation", 
      "name": "in_stem_conv10_3*3_relu", 
      "attrs": {"act_type": "relu"}, 
      "inputs": [[82, 0, 0]]
    }, 
    {
      "op": "Concat", 
      "name": "in_stem_concat_2", 
      "attrs": {"num_args": "2"}, 
      "inputs": [[51, 0, 0], [83, 0, 0]]
    }, 
    {
      "op": "null", 
      "name": "in_stem_conv11_3*3_conv2d_weight", 
      "attrs": {
        "kernel": "(3, 3)", 
        "no_bias": "True", 
        "num_filter": "192", 
        "pad": "(0, 0)", 
        "stride": "(2, 2)"
      }, 
      "inputs": []
    }, 
    {
      "op": "Convolution", 
      "name": "in_stem_conv11_3*3_conv2d", 
      "attrs": {
        "kernel": "(3, 3)", 
        "no_bias": "True", 
        "num_filter": "192", 
        "pad": "(0, 0)", 
        "stride": "(2, 2)"
      }, 
      "inputs": [[84, 0, 0], [85, 0, 0]]
    }, 
    {
      "op": "null", 
      "name": "in_stem_conv11_3*3_batchnorm_gamma", 
      "attrs": {"fix_gamma": "True"}, 
      "inputs": []
    }, 
    {
      "op": "null", 
      "name": "in_stem_conv11_3*3_batchnorm_beta", 
      "attrs": {"fix_gamma": "True"}, 
      "inputs": []
    }, 
    {
      "op": "null", 
      "name": "in_stem_conv11_3*3_batchnorm_moving_mean", 
      "attrs": {
        "__init__": "[\"zero\", {}]", 
        "fix_gamma": "True"
      }, 
      "inputs": []
    }, 
    {
      "op": "null", 
      "name": "in_stem_conv11_3*3_batchnorm_moving_var", 
      "attrs": {
        "__init__": "[\"one\", {}]", 
        "fix_gamma": "True"
      }, 
      "inputs": []
    }, 
    {
      "op": "BatchNorm", 
      "name": "in_stem_conv11_3*3_batchnorm", 
      "attrs": {"fix_gamma": "True"}, 
      "inputs": [[86, 0, 0], [87, 0, 0], [88, 0, 0], [89, 0, 1], [90, 0, 1]]
    }, 
    {
      "op": "Activation", 
      "name": "in_stem_conv11_3*3_relu", 
      "attrs": {"act_type": "relu"}, 
      "inputs": [[91, 0, 0]]
    }, 
    {
      "op": "Pooling", 
      "name": "in_stem_maxpool_2", 
      "attrs": {
        "kernel": "(3, 3)", 
        "pool_type": "max", 
        "stride": "(2, 2)"
      }, 
      "inputs": [[84, 0, 0]]
    }, 
    {
      "op": "Concat", 
      "name": "in_stem_concat_3", 
      "attrs": {"num_args": "2"}, 
      "inputs": [[92, 0, 0], [93, 0, 0]]
    }, 
    {
      "op": "Pooling", 
      "name": "in1A_avgpool_1", 
      "attrs": {
        "kernel": "(3, 3)", 
        "pad": "(1, 1)", 
        "pool_type": "avg"
      }, 
      "inputs": [[94, 0, 0]]
    }, 
    {
      "op": "null", 
      "name": "in1A_conv1_1*1_conv2d_weight", 
      "attrs": {
        "kernel": "(1, 1)", 
        "no_bias": "True", 
        "num_filter": "96", 
        "pad": "(0, 0)", 
        "stride": "(1, 1)"
      }, 
      "inputs": []
    }, 
    {
      "op": "Convolution", 
      "name": "in1A_conv1_1*1_conv2d", 
      "attrs": {
        "kernel": "(1, 1)", 
        "no_bias": "True", 
        "num_filter": "96", 
        "pad": "(0, 0)", 
        "stride": "(1, 1)"
      }, 
      "inputs": [[95, 0, 0], [96, 0, 0]]
    }, 
    {
      "op": "null", 
      "name": "in1A_conv1_1*1_batchnorm_gamma", 
      "attrs": {"fix_gamma": "True"}, 
      "inputs": []
    }, 
    {
      "op": "null", 
      "name": "in1A_conv1_1*1_batchnorm_beta", 
      "attrs": {"fix_gamma": "True"}, 
      "inputs": []
    }, 
    {
      "op": "null", 
      "name": "in1A_conv1_1*1_batchnorm_moving_mean", 
      "attrs": {
        "__init__": "[\"zero\", {}]", 
        "fix_gamma": "True"
      }, 
      "inputs": []
    }, 
    {
      "op": "null", 
      "name": "in1A_conv1_1*1_batchnorm_moving_var", 
      "attrs": {
        "__init__": "[\"one\", {}]", 
        "fix_gamma": "True"
      }, 
      "inputs": []
    }, 
    {
      "op": "BatchNorm", 
      "name": "in1A_conv1_1*1_batchnorm", 
      "attrs": {"fix_gamma": "True"}, 
      "inputs": [[97, 0, 0], [98, 0, 0], [99, 0, 0], [100, 0, 1], [101, 0, 1]]
    }, 
    {
      "op": "Activation", 
      "name": "in1A_conv1_1*1_relu", 
      "attrs": {"act_type": "relu"}, 
      "inputs": [[102, 0, 0]]
    }, 
    {
      "op": "null", 
      "name": "in1A_conv2_1*1_conv2d_weight", 
      "attrs": {
        "kernel": "(1, 1)", 
        "no_bias": "True", 
        "num_filter": "96", 
        "pad": "(0, 0)", 
        "stride": "(1, 1)"
      }, 
      "inputs": []
    }, 
    {
      "op": "Convolution", 
      "name": "in1A_conv2_1*1_conv2d", 
      "attrs": {
        "kernel": "(1, 1)", 
        "no_bias": "True", 
        "num_filter": "96", 
        "pad": "(0, 0)", 
        "stride": "(1, 1)"
      }, 
      "inputs": [[94, 0, 0], [104, 0, 0]]
    }, 
    {
      "op": "null", 
      "name": "in1A_conv2_1*1_batchnorm_gamma", 
      "attrs": {"fix_gamma": "True"}, 
      "inputs": []
    }, 
    {
      "op": "null", 
      "name": "in1A_conv2_1*1_batchnorm_beta", 
      "attrs": {"fix_gamma": "True"}, 
      "inputs": []
    }, 
    {
      "op": "null", 
      "name": "in1A_conv2_1*1_batchnorm_moving_mean", 
      "attrs": {
        "__init__": "[\"zero\", {}]", 
        "fix_gamma": "True"
      }, 
      "inputs": []
    }, 
    {
      "op": "null", 
      "name": "in1A_conv2_1*1_batchnorm_moving_var", 
      "attrs": {
        "__init__": "[\"one\", {}]", 
        "fix_gamma": "True"
      }, 
      "inputs": []
    }, 
    {
      "op": "BatchNorm", 
      "name": "in1A_conv2_1*1_batchnorm", 
      "attrs": {"fix_gamma": "True"}, 
      "inputs": [[105, 0, 0], [106, 0, 0], [107, 0, 0], [108, 0, 1], [109, 0, 1]]
    }, 
    {
      "op": "Activation", 
      "name": "in1A_conv2_1*1_relu", 
      "attrs": {"act_type": "relu"}, 
      "inputs": [[110, 0, 0]]
    }, 
    {
      "op": "null", 
      "name": "in1A_conv3_1*1_conv2d_weight", 
      "attrs": {
        "kernel": "(1, 1)", 
        "no_bias": "True", 
        "num_filter": "64", 
        "pad": "(0, 0)", 
        "stride": "(1, 1)"
      }, 
      "inputs": []
    }, 
    {
      "op": "Convolution", 
      "name": "in1A_conv3_1*1_conv2d", 
      "attrs": {
        "kernel": "(1, 1)", 
        "no_bias": "True", 
        "num_filter": "64", 
        "pad": "(0, 0)", 
        "stride": "(1, 1)"
      }, 
      "inputs": [[94, 0, 0], [112, 0, 0]]
    }, 
    {
      "op": "null", 
      "name": "in1A_conv3_1*1_batchnorm_gamma", 
      "attrs": {"fix_gamma": "True"}, 
      "inputs": []
    }, 
    {
      "op": "null", 
      "name": "in1A_conv3_1*1_batchnorm_beta", 
      "attrs": {"fix_gamma": "True"}, 
      "inputs": []
    }, 
    {
      "op": "null", 
      "name": "in1A_conv3_1*1_batchnorm_moving_mean", 
      "attrs": {
        "__init__": "[\"zero\", {}]", 
        "fix_gamma": "True"
      }, 
      "inputs": []
    }, 
    {
      "op": "null", 
      "name": "in1A_conv3_1*1_batchnorm_moving_var", 
      "attrs": {
        "__init__": "[\"one\", {}]", 
        "fix_gamma": "True"
      }, 
      "inputs": []
    }, 
    {
      "op": "BatchNorm", 
      "name": "in1A_conv3_1*1_batchnorm", 
      "attrs": {"fix_gamma": "True"}, 
      "inputs": [[113, 0, 0], [114, 0, 0], [115, 0, 0], [116, 0, 1], [117, 0, 1]]
    }, 
    {
      "op": "Activation", 
      "name": "in1A_conv3_1*1_relu", 
      "attrs": {"act_type": "relu"}, 
      "inputs": [[118, 0, 0]]
    }, 
    {
      "op": "null", 
      "name": "in1A_conv4_3*3_conv2d_weight", 
      "attrs": {
        "kernel": "(3, 3)", 
        "no_bias": "True", 
        "num_filter": "96", 
        "pad": "(1, 1)", 
        "stride": "(1, 1)"
      }, 
      "inputs": []
    }, 
    {
      "op": "Convolution", 
      "name": "in1A_conv4_3*3_conv2d", 
      "attrs": {
        "kernel": "(3, 3)", 
        "no_bias": "True", 
        "num_filter": "96", 
        "pad": "(1, 1)", 
        "stride": "(1, 1)"
      }, 
      "inputs": [[119, 0, 0], [120, 0, 0]]
    }, 
    {
      "op": "null", 
      "name": "in1A_conv4_3*3_batchnorm_gamma", 
      "attrs": {"fix_gamma": "True"}, 
      "inputs": []
    }, 
    {
      "op": "null", 
      "name": "in1A_conv4_3*3_batchnorm_beta", 
      "attrs": {"fix_gamma": "True"}, 
      "inputs": []
    }, 
    {
      "op": "null", 
      "name": "in1A_conv4_3*3_batchnorm_moving_mean", 
      "attrs": {
        "__init__": "[\"zero\", {}]", 
        "fix_gamma": "True"
      }, 
      "inputs": []
    }, 
    {
      "op": "null", 
      "name": "in1A_conv4_3*3_batchnorm_moving_var", 
      "attrs": {
        "__init__": "[\"one\", {}]", 
        "fix_gamma": "True"
      }, 
      "inputs": []
    }, 
    {
      "op": "BatchNorm", 
      "name": "in1A_conv4_3*3_batchnorm", 
      "attrs": {"fix_gamma": "True"}, 
      "inputs": [[121, 0, 0], [122, 0, 0], [123, 0, 0], [124, 0, 1], [125, 0, 1]]
    }, 
    {
      "op": "Activation", 
      "name": "in1A_conv4_3*3_relu", 
      "attrs": {"act_type": "relu"}, 
      "inputs": [[126, 0, 0]]
    }, 
    {
      "op": "null", 
      "name": "in1A_conv5_1*1_conv2d_weight", 
      "attrs": {
        "kernel": "(1, 1)", 
        "no_bias": "True", 
        "num_filter": "64", 
        "pad": "(0, 0)", 
        "stride": "(1, 1)"
      }, 
      "inputs": []
    }, 
    {
      "op": "Convolution", 
      "name": "in1A_conv5_1*1_conv2d", 
      "attrs": {
        "kernel": "(1, 1)", 
        "no_bias": "True", 
        "num_filter": "64", 
        "pad": "(0, 0)", 
        "stride": "(1, 1)"
      }, 
      "inputs": [[94, 0, 0], [128, 0, 0]]
    }, 
    {
      "op": "null", 
      "name": "in1A_conv5_1*1_batchnorm_gamma", 
      "attrs": {"fix_gamma": "True"}, 
      "inputs": []
    }, 
    {
      "op": "null", 
      "name": "in1A_conv5_1*1_batchnorm_beta", 
      "attrs": {"fix_gamma": "True"}, 
      "inputs": []
    }, 
    {
      "op": "null", 
      "name": "in1A_conv5_1*1_batchnorm_moving_mean", 
      "attrs": {
        "__init__": "[\"zero\", {}]", 
        "fix_gamma": "True"
      }, 
      "inputs": []
    }, 
    {
      "op": "null", 
      "name": "in1A_conv5_1*1_batchnorm_moving_var", 
      "attrs": {
        "__init__": "[\"one\", {}]", 
        "fix_gamma": "True"
      }, 
      "inputs": []
    }, 
    {
      "op": "BatchNorm", 
      "name": "in1A_conv5_1*1_batchnorm", 
      "attrs": {"fix_gamma": "True"}, 
      "inputs": [[129, 0, 0], [130, 0, 0], [131, 0, 0], [132, 0, 1], [133, 0, 1]]
    }, 
    {
      "op": "Activation", 
      "name": "in1A_conv5_1*1_relu", 
      "attrs": {"act_type": "relu"}, 
      "inputs": [[134, 0, 0]]
    }, 
    {
      "op": "null", 
      "name": "in1A_conv6_3*3_conv2d_weight", 
      "attrs": {
        "kernel": "(3, 3)", 
        "no_bias": "True", 
        "num_filter": "96", 
        "pad": "(1, 1)", 
        "stride": "(1, 1)"
      }, 
      "inputs": []
    }, 
    {
      "op": "Convolution", 
      "name": "in1A_conv6_3*3_conv2d", 
      "attrs": {
        "kernel": "(3, 3)", 
        "no_bias": "True", 
        "num_filter": "96", 
        "pad": "(1, 1)", 
        "stride": "(1, 1)"
      }, 
      "inputs": [[135, 0, 0], [136, 0, 0]]
    }, 
    {
      "op": "null", 
      "name": "in1A_conv6_3*3_batchnorm_gamma", 
      "attrs": {"fix_gamma": "True"}, 
      "inputs": []
    }, 
    {
      "op": "null", 
      "name": "in1A_conv6_3*3_batchnorm_beta", 
      "attrs": {"fix_gamma": "True"}, 
      "inputs": []
    }, 
    {
      "op": "null", 
      "name": "in1A_conv6_3*3_batchnorm_moving_mean", 
      "attrs": {
        "__init__": "[\"zero\", {}]", 
        "fix_gamma": "True"
      }, 
      "inputs": []
    }, 
    {
      "op": "null", 
      "name": "in1A_conv6_3*3_batchnorm_moving_var", 
      "attrs": {
        "__init__": "[\"one\", {}]", 
        "fix_gamma": "True"
      }, 
      "inputs": []
    }, 
    {
      "op": "BatchNorm", 
      "name": "in1A_conv6_3*3_batchnorm", 
      "attrs": {"fix_gamma": "True"}, 
      "inputs": [[137, 0, 0], [138, 0, 0], [139, 0, 0], [140, 0, 1], [141, 0, 1]]
    }, 
    {
      "op": "Activation", 
      "name": "in1A_conv6_3*3_relu", 
      "attrs": {"act_type": "relu"}, 
      "inputs": [[142, 0, 0]]
    }, 
    {
      "op": "null", 
      "name": "in1A_conv7_3*3_conv2d_weight", 
      "attrs": {
        "kernel": "(3, 3)", 
        "no_bias": "True", 
        "num_filter": "96", 
        "pad": "(1, 1)", 
        "stride": "(1, 1)"
      }, 
      "inputs": []
    }, 
    {
      "op": "Convolution", 
      "name": "in1A_conv7_3*3_conv2d", 
      "attrs": {
        "kernel": "(3, 3)", 
        "no_bias": "True", 
        "num_filter": "96", 
        "pad": "(1, 1)", 
        "stride": "(1, 1)"
      }, 
      "inputs": [[143, 0, 0], [144, 0, 0]]
    }, 
    {
      "op": "null", 
      "name": "in1A_conv7_3*3_batchnorm_gamma", 
      "attrs": {"fix_gamma": "True"}, 
      "inputs": []
    }, 
    {
      "op": "null", 
      "name": "in1A_conv7_3*3_batchnorm_beta", 
      "attrs": {"fix_gamma": "True"}, 
      "inputs": []
    }, 
    {
      "op": "null", 
      "name": "in1A_conv7_3*3_batchnorm_moving_mean", 
      "attrs": {
        "__init__": "[\"zero\", {}]", 
        "fix_gamma": "True"
      }, 
      "inputs": []
    }, 
    {
      "op": "null", 
      "name": "in1A_conv7_3*3_batchnorm_moving_var", 
      "attrs": {
        "__init__": "[\"one\", {}]", 
        "fix_gamma": "True"
      }, 
      "inputs": []
    }, 
    {
      "op": "BatchNorm", 
      "name": "in1A_conv7_3*3_batchnorm", 
      "attrs": {"fix_gamma": "True"}, 
      "inputs": [[145, 0, 0], [146, 0, 0], [147, 0, 0], [148, 0, 1], [149, 0, 1]]
    }, 
    {
      "op": "Activation", 
      "name": "in1A_conv7_3*3_relu", 
      "attrs": {"act_type": "relu"}, 
      "inputs": [[150, 0, 0]]
    }, 
    {
      "op": "Concat", 
      "name": "in1A_concat_1", 
      "attrs": {"num_args": "4"}, 
      "inputs": [[103, 0, 0], [111, 0, 0], [127, 0, 0], [151, 0, 0]]
    }, 
    {
      "op": "Pooling", 
      "name": "in2A_avgpool_1", 
      "attrs": {
        "kernel": "(3, 3)", 
        "pad": "(1, 1)", 
        "pool_type": "avg"
      }, 
      "inputs": [[152, 0, 0]]
    }, 
    {
      "op": "null", 
      "name": "in2A_conv1_1*1_conv2d_weight", 
      "attrs": {
        "kernel": "(1, 1)", 
        "no_bias": "True", 
        "num_filter": "96", 
        "pad": "(0, 0)", 
        "stride": "(1, 1)"
      }, 
      "inputs": []
    }, 
    {
      "op": "Convolution", 
      "name": "in2A_conv1_1*1_conv2d", 
      "attrs": {
        "kernel": "(1, 1)", 
        "no_bias": "True", 
        "num_filter": "96", 
        "pad": "(0, 0)", 
        "stride": "(1, 1)"
      }, 
      "inputs": [[153, 0, 0], [154, 0, 0]]
    }, 
    {
      "op": "null", 
      "name": "in2A_conv1_1*1_batchnorm_gamma", 
      "attrs": {"fix_gamma": "True"}, 
      "inputs": []
    }, 
    {
      "op": "null", 
      "name": "in2A_conv1_1*1_batchnorm_beta", 
      "attrs": {"fix_gamma": "True"}, 
      "inputs": []
    }, 
    {
      "op": "null", 
      "name": "in2A_conv1_1*1_batchnorm_moving_mean", 
      "attrs": {
        "__init__": "[\"zero\", {}]", 
        "fix_gamma": "True"
      }, 
      "inputs": []
    }, 
    {
      "op": "null", 
      "name": "in2A_conv1_1*1_batchnorm_moving_var", 
      "attrs": {
        "__init__": "[\"one\", {}]", 
        "fix_gamma": "True"
      }, 
      "inputs": []
    }, 
    {
      "op": "BatchNorm", 
      "name": "in2A_conv1_1*1_batchnorm", 
      "attrs": {"fix_gamma": "True"}, 
      "inputs": [[155, 0, 0], [156, 0, 0], [157, 0, 0], [158, 0, 1], [159, 0, 1]]
    }, 
    {
      "op": "Activation", 
      "name": "in2A_conv1_1*1_relu", 
      "attrs": {"act_type": "relu"}, 
      "inputs": [[160, 0, 0]]
    }, 
    {
      "op": "null", 
      "name": "in2A_conv2_1*1_conv2d_weight", 
      "attrs": {
        "kernel": "(1, 1)", 
        "no_bias": "True", 
        "num_filter": "96", 
        "pad": "(0, 0)", 
        "stride": "(1, 1)"
      }, 
      "inputs": []
    }, 
    {
      "op": "Convolution", 
      "name": "in2A_conv2_1*1_conv2d", 
      "attrs": {
        "kernel": "(1, 1)", 
        "no_bias": "True", 
        "num_filter": "96", 
        "pad": "(0, 0)", 
        "stride": "(1, 1)"
      }, 
      "inputs": [[152, 0, 0], [162, 0, 0]]
    }, 
    {
      "op": "null", 
      "name": "in2A_conv2_1*1_batchnorm_gamma", 
      "attrs": {"fix_gamma": "True"}, 
      "inputs": []
    }, 
    {
      "op": "null", 
      "name": "in2A_conv2_1*1_batchnorm_beta", 
      "attrs": {"fix_gamma": "True"}, 
      "inputs": []
    }, 
    {
      "op": "null", 
      "name": "in2A_conv2_1*1_batchnorm_moving_mean", 
      "attrs": {
        "__init__": "[\"zero\", {}]", 
        "fix_gamma": "True"
      }, 
      "inputs": []
    }, 
    {
      "op": "null", 
      "name": "in2A_conv2_1*1_batchnorm_moving_var", 
      "attrs": {
        "__init__": "[\"one\", {}]", 
        "fix_gamma": "True"
      }, 
      "inputs": []
    }, 
    {
      "op": "BatchNorm", 
      "name": "in2A_conv2_1*1_batchnorm", 
      "attrs": {"fix_gamma": "True"}, 
      "inputs": [[163, 0, 0], [164, 0, 0], [165, 0, 0], [166, 0, 1], [167, 0, 1]]
    }, 
    {
      "op": "Activation", 
      "name": "in2A_conv2_1*1_relu", 
      "attrs": {"act_type": "relu"}, 
      "inputs": [[168, 0, 0]]
    }, 
    {
      "op": "null", 
      "name": "in2A_conv3_1*1_conv2d_weight", 
      "attrs": {
        "kernel": "(1, 1)", 
        "no_bias": "True", 
        "num_filter": "64", 
        "pad": "(0, 0)", 
        "stride": "(1, 1)"
      }, 
      "inputs": []
    }, 
    {
      "op": "Convolution", 
      "name": "in2A_conv3_1*1_conv2d", 
      "attrs": {
        "kernel": "(1, 1)", 
        "no_bias": "True", 
        "num_filter": "64", 
        "pad": "(0, 0)", 
        "stride": "(1, 1)"
      }, 
      "inputs": [[152, 0, 0], [170, 0, 0]]
    }, 
    {
      "op": "null", 
      "name": "in2A_conv3_1*1_batchnorm_gamma", 
      "attrs": {"fix_gamma": "True"}, 
      "inputs": []
    }, 
    {
      "op": "null", 
      "name": "in2A_conv3_1*1_batchnorm_beta", 
      "attrs": {"fix_gamma": "True"}, 
      "inputs": []
    }, 
    {
      "op": "null", 
      "name": "in2A_conv3_1*1_batchnorm_moving_mean", 
      "attrs": {
        "__init__": "[\"zero\", {}]", 
        "fix_gamma": "True"
      }, 
      "inputs": []
    }, 
    {
      "op": "null", 
      "name": "in2A_conv3_1*1_batchnorm_moving_var", 
      "attrs": {
        "__init__": "[\"one\", {}]", 
        "fix_gamma": "True"
      }, 
      "inputs": []
    }, 
    {
      "op": "BatchNorm", 
      "name": "in2A_conv3_1*1_batchnorm", 
      "attrs": {"fix_gamma": "True"}, 
      "inputs": [[171, 0, 0], [172, 0, 0], [173, 0, 0], [174, 0, 1], [175, 0, 1]]
    }, 
    {
      "op": "Activation", 
      "name": "in2A_conv3_1*1_relu", 
      "attrs": {"act_type": "relu"}, 
      "inputs": [[176, 0, 0]]
    }, 
    {
      "op": "null", 
      "name": "in2A_conv4_3*3_conv2d_weight", 
      "attrs": {
        "kernel": "(3, 3)", 
        "no_bias": "True", 
        "num_filter": "96", 
        "pad": "(1, 1)", 
        "stride": "(1, 1)"
      }, 
      "inputs": []
    }, 
    {
      "op": "Convolution", 
      "name": "in2A_conv4_3*3_conv2d", 
      "attrs": {
        "kernel": "(3, 3)", 
        "no_bias": "True", 
        "num_filter": "96", 
        "pad": "(1, 1)", 
        "stride": "(1, 1)"
      }, 
      "inputs": [[177, 0, 0], [178, 0, 0]]
    }, 
    {
      "op": "null", 
      "name": "in2A_conv4_3*3_batchnorm_gamma", 
      "attrs": {"fix_gamma": "True"}, 
      "inputs": []
    }, 
    {
      "op": "null", 
      "name": "in2A_conv4_3*3_batchnorm_beta", 
      "attrs": {"fix_gamma": "True"}, 
      "inputs": []
    }, 
    {
      "op": "null", 
      "name": "in2A_conv4_3*3_batchnorm_moving_mean", 
      "attrs": {
        "__init__": "[\"zero\", {}]", 
        "fix_gamma": "True"
      }, 
      "inputs": []
    }, 
    {
      "op": "null", 
      "name": "in2A_conv4_3*3_batchnorm_moving_var", 
      "attrs": {
        "__init__": "[\"one\", {}]", 
        "fix_gamma": "True"
      }, 
      "inputs": []
    }, 
    {
      "op": "BatchNorm", 
      "name": "in2A_conv4_3*3_batchnorm", 
      "attrs": {"fix_gamma": "True"}, 
      "inputs": [[179, 0, 0], [180, 0, 0], [181, 0, 0], [182, 0, 1], [183, 0, 1]]
    }, 
    {
      "op": "Activation", 
      "name": "in2A_conv4_3*3_relu", 
      "attrs": {"act_type": "relu"}, 
      "inputs": [[184, 0, 0]]
    }, 
    {
      "op": "null", 
      "name": "in2A_conv5_1*1_conv2d_weight", 
      "attrs": {
        "kernel": "(1, 1)", 
        "no_bias": "True", 
        "num_filter": "64", 
        "pad": "(0, 0)", 
        "stride": "(1, 1)"
      }, 
      "inputs": []
    }, 
    {
      "op": "Convolution", 
      "name": "in2A_conv5_1*1_conv2d", 
      "attrs": {
        "kernel": "(1, 1)", 
        "no_bias": "True", 
        "num_filter": "64", 
        "pad": "(0, 0)", 
        "stride": "(1, 1)"
      }, 
      "inputs": [[152, 0, 0], [186, 0, 0]]
    }, 
    {
      "op": "null", 
      "name": "in2A_conv5_1*1_batchnorm_gamma", 
      "attrs": {"fix_gamma": "True"}, 
      "inputs": []
    }, 
    {
      "op": "null", 
      "name": "in2A_conv5_1*1_batchnorm_beta", 
      "attrs": {"fix_gamma": "True"}, 
      "inputs": []
    }, 
    {
      "op": "null", 
      "name": "in2A_conv5_1*1_batchnorm_moving_mean", 
      "attrs": {
        "__init__": "[\"zero\", {}]", 
        "fix_gamma": "True"
      }, 
      "inputs": []
    }, 
    {
      "op": "null", 
      "name": "in2A_conv5_1*1_batchnorm_moving_var", 
      "attrs": {
        "__init__": "[\"one\", {}]", 
        "fix_gamma": "True"
      }, 
      "inputs": []
    }, 
    {
      "op": "BatchNorm", 
      "name": "in2A_conv5_1*1_batchnorm", 
      "attrs": {"fix_gamma": "True"}, 
      "inputs": [[187, 0, 0], [188, 0, 0], [189, 0, 0], [190, 0, 1], [191, 0, 1]]
    }, 
    {
      "op": "Activation", 
      "name": "in2A_conv5_1*1_relu", 
      "attrs": {"act_type": "relu"}, 
      "inputs": [[192, 0, 0]]
    }, 
    {
      "op": "null", 
      "name": "in2A_conv6_3*3_conv2d_weight", 
      "attrs": {
        "kernel": "(3, 3)", 
        "no_bias": "True", 
        "num_filter": "96", 
        "pad": "(1, 1)", 
        "stride": "(1, 1)"
      }, 
      "inputs": []
    }, 
    {
      "op": "Convolution", 
      "name": "in2A_conv6_3*3_conv2d", 
      "attrs": {
        "kernel": "(3, 3)", 
        "no_bias": "True", 
        "num_filter": "96", 
        "pad": "(1, 1)", 
        "stride": "(1, 1)"
      }, 
      "inputs": [[193, 0, 0], [194, 0, 0]]
    }, 
    {
      "op": "null", 
      "name": "in2A_conv6_3*3_batchnorm_gamma", 
      "attrs": {"fix_gamma": "True"}, 
      "inputs": []
    }, 
    {
      "op": "null", 
      "name": "in2A_conv6_3*3_batchnorm_beta", 
      "attrs": {"fix_gamma": "True"}, 
      "inputs": []
    }, 
    {
      "op": "null", 
      "name": "in2A_conv6_3*3_batchnorm_moving_mean", 
      "attrs": {
        "__init__": "[\"zero\", {}]", 
        "fix_gamma": "True"
      }, 
      "inputs": []
    }, 
    {
      "op": "null", 
      "name": "in2A_conv6_3*3_batchnorm_moving_var", 
      "attrs": {
        "__init__": "[\"one\", {}]", 
        "fix_gamma": "True"
      }, 
      "inputs": []
    }, 
    {
      "op": "BatchNorm", 
      "name": "in2A_conv6_3*3_batchnorm", 
      "attrs": {"fix_gamma": "True"}, 
      "inputs": [[195, 0, 0], [196, 0, 0], [197, 0, 0], [198, 0, 1], [199, 0, 1]]
    }, 
    {
      "op": "Activation", 
      "name": "in2A_conv6_3*3_relu", 
      "attrs": {"act_type": "relu"}, 
      "inputs": [[200, 0, 0]]
    }, 
    {
      "op": "null", 
      "name": "in2A_conv7_3*3_conv2d_weight", 
      "attrs": {
        "kernel": "(3, 3)", 
        "no_bias": "True", 
        "num_filter": "96", 
        "pad": "(1, 1)", 
        "stride": "(1, 1)"
      }, 
      "inputs": []
    }, 
    {
      "op": "Convolution", 
      "name": "in2A_conv7_3*3_conv2d", 
      "attrs": {
        "kernel": "(3, 3)", 
        "no_bias": "True", 
        "num_filter": "96", 
        "pad": "(1, 1)", 
        "stride": "(1, 1)"
      }, 
      "inputs": [[201, 0, 0], [202, 0, 0]]
    }, 
    {
      "op": "null", 
      "name": "in2A_conv7_3*3_batchnorm_gamma", 
      "attrs": {"fix_gamma": "True"}, 
      "inputs": []
    }, 
    {
      "op": "null", 
      "name": "in2A_conv7_3*3_batchnorm_beta", 
      "attrs": {"fix_gamma": "True"}, 
      "inputs": []
    }, 
    {
      "op": "null", 
      "name": "in2A_conv7_3*3_batchnorm_moving_mean", 
      "attrs": {
        "__init__": "[\"zero\", {}]", 
        "fix_gamma": "True"
      }, 
      "inputs": []
    }, 
    {
      "op": "null", 
      "name": "in2A_conv7_3*3_batchnorm_moving_var", 
      "attrs": {
        "__init__": "[\"one\", {}]", 
        "fix_gamma": "True"
      }, 
      "inputs": []
    }, 
    {
      "op": "BatchNorm", 
      "name": "in2A_conv7_3*3_batchnorm", 
      "attrs": {"fix_gamma": "True"}, 
      "inputs": [[203, 0, 0], [204, 0, 0], [205, 0, 0], [206, 0, 1], [207, 0, 1]]
    }, 
    {
      "op": "Activation", 
      "name": "in2A_conv7_3*3_relu", 
      "attrs": {"act_type": "relu"}, 
      "inputs": [[208, 0, 0]]
    }, 
    {
      "op": "Concat", 
      "name": "in2A_concat_1", 
      "attrs": {"num_args": "4"}, 
      "inputs": [[161, 0, 0], [169, 0, 0], [185, 0, 0], [209, 0, 0]]
    }, 
    {
      "op": "Pooling", 
      "name": "in3A_avgpool_1", 
      "attrs": {
        "kernel": "(3, 3)", 
        "pad": "(1, 1)", 
        "pool_type": "avg"
      }, 
      "inputs": [[210, 0, 0]]
    }, 
    {
      "op": "null", 
      "name": "in3A_conv1_1*1_conv2d_weight", 
      "attrs": {
        "kernel": "(1, 1)", 
        "no_bias": "True", 
        "num_filter": "96", 
        "pad": "(0, 0)", 
        "stride": "(1, 1)"
      }, 
      "inputs": []
    }, 
    {
      "op": "Convolution", 
      "name": "in3A_conv1_1*1_conv2d", 
      "attrs": {
        "kernel": "(1, 1)", 
        "no_bias": "True", 
        "num_filter": "96", 
        "pad": "(0, 0)", 
        "stride": "(1, 1)"
      }, 
      "inputs": [[211, 0, 0], [212, 0, 0]]
    }, 
    {
      "op": "null", 
      "name": "in3A_conv1_1*1_batchnorm_gamma", 
      "attrs": {"fix_gamma": "True"}, 
      "inputs": []
    }, 
    {
      "op": "null", 
      "name": "in3A_conv1_1*1_batchnorm_beta", 
      "attrs": {"fix_gamma": "True"}, 
      "inputs": []
    }, 
    {
      "op": "null", 
      "name": "in3A_conv1_1*1_batchnorm_moving_mean", 
      "attrs": {
        "__init__": "[\"zero\", {}]", 
        "fix_gamma": "True"
      }, 
      "inputs": []
    }, 
    {
      "op": "null", 
      "name": "in3A_conv1_1*1_batchnorm_moving_var", 
      "attrs": {
        "__init__": "[\"one\", {}]", 
        "fix_gamma": "True"
      }, 
      "inputs": []
    }, 
    {
      "op": "BatchNorm", 
      "name": "in3A_conv1_1*1_batchnorm", 
      "attrs": {"fix_gamma": "True"}, 
      "inputs": [[213, 0, 0], [214, 0, 0], [215, 0, 0], [216, 0, 1], [217, 0, 1]]
    }, 
    {
      "op": "Activation", 
      "name": "in3A_conv1_1*1_relu", 
      "attrs": {"act_type": "relu"}, 
      "inputs": [[218, 0, 0]]
    }, 
    {
      "op": "null", 
      "name": "in3A_conv2_1*1_conv2d_weight", 
      "attrs": {
        "kernel": "(1, 1)", 
        "no_bias": "True", 
        "num_filter": "96", 
        "pad": "(0, 0)", 
        "stride": "(1, 1)"
      }, 
      "inputs": []
    }, 
    {
      "op": "Convolution", 
      "name": "in3A_conv2_1*1_conv2d", 
      "attrs": {
        "kernel": "(1, 1)", 
        "no_bias": "True", 
        "num_filter": "96", 
        "pad": "(0, 0)", 
        "stride": "(1, 1)"
      }, 
      "inputs": [[210, 0, 0], [220, 0, 0]]
    }, 
    {
      "op": "null", 
      "name": "in3A_conv2_1*1_batchnorm_gamma", 
      "attrs": {"fix_gamma": "True"}, 
      "inputs": []
    }, 
    {
      "op": "null", 
      "name": "in3A_conv2_1*1_batchnorm_beta", 
      "attrs": {"fix_gamma": "True"}, 
      "inputs": []
    }, 
    {
      "op": "null", 
      "name": "in3A_conv2_1*1_batchnorm_moving_mean", 
      "attrs": {
        "__init__": "[\"zero\", {}]", 
        "fix_gamma": "True"
      }, 
      "inputs": []
    }, 
    {
      "op": "null", 
      "name": "in3A_conv2_1*1_batchnorm_moving_var", 
      "attrs": {
        "__init__": "[\"one\", {}]", 
        "fix_gamma": "True"
      }, 
      "inputs": []
    }, 
    {
      "op": "BatchNorm", 
      "name": "in3A_conv2_1*1_batchnorm", 
      "attrs": {"fix_gamma": "True"}, 
      "inputs": [[221, 0, 0], [222, 0, 0], [223, 0, 0], [224, 0, 1], [225, 0, 1]]
    }, 
    {
      "op": "Activation", 
      "name": "in3A_conv2_1*1_relu", 
      "attrs": {"act_type": "relu"}, 
      "inputs": [[226, 0, 0]]
    }, 
    {
      "op": "null", 
      "name": "in3A_conv3_1*1_conv2d_weight", 
      "attrs": {
        "kernel": "(1, 1)", 
        "no_bias": "True", 
        "num_filter": "64", 
        "pad": "(0, 0)", 
        "stride": "(1, 1)"
      }, 
      "inputs": []
    }, 
    {
      "op": "Convolution", 
      "name": "in3A_conv3_1*1_conv2d", 
      "attrs": {
        "kernel": "(1, 1)", 
        "no_bias": "True", 
        "num_filter": "64", 
        "pad": "(0, 0)", 
        "stride": "(1, 1)"
      }, 
      "inputs": [[210, 0, 0], [228, 0, 0]]
    }, 
    {
      "op": "null", 
      "name": "in3A_conv3_1*1_batchnorm_gamma", 
      "attrs": {"fix_gamma": "True"}, 
      "inputs": []
    }, 
    {
      "op": "null", 
      "name": "in3A_conv3_1*1_batchnorm_beta", 
      "attrs": {"fix_gamma": "True"}, 
      "inputs": []
    }, 
    {
      "op": "null", 
      "name": "in3A_conv3_1*1_batchnorm_moving_mean", 
      "attrs": {
        "__init__": "[\"zero\", {}]", 
        "fix_gamma": "True"
      }, 
      "inputs": []
    }, 
    {
      "op": "null", 
      "name": "in3A_conv3_1*1_batchnorm_moving_var", 
      "attrs": {
        "__init__": "[\"one\", {}]", 
        "fix_gamma": "True"
      }, 
      "inputs": []
    }, 
    {
      "op": "BatchNorm", 
      "name": "in3A_conv3_1*1_batchnorm", 
      "attrs": {"fix_gamma": "True"}, 
      "inputs": [[229, 0, 0], [230, 0, 0], [231, 0, 0], [232, 0, 1], [233, 0, 1]]
    }, 
    {
      "op": "Activation", 
      "name": "in3A_conv3_1*1_relu", 
      "attrs": {"act_type": "relu"}, 
      "inputs": [[234, 0, 0]]
    }, 
    {
      "op": "null", 
      "name": "in3A_conv4_3*3_conv2d_weight", 
      "attrs": {
        "kernel": "(3, 3)", 
        "no_bias": "True", 
        "num_filter": "96", 
        "pad": "(1, 1)", 
        "stride": "(1, 1)"
      }, 
      "inputs": []
    }, 
    {
      "op": "Convolution", 
      "name": "in3A_conv4_3*3_conv2d", 
      "attrs": {
        "kernel": "(3, 3)", 
        "no_bias": "True", 
        "num_filter": "96", 
        "pad": "(1, 1)", 
        "stride": "(1, 1)"
      }, 
      "inputs": [[235, 0, 0], [236, 0, 0]]
    }, 
    {
      "op": "null", 
      "name": "in3A_conv4_3*3_batchnorm_gamma", 
      "attrs": {"fix_gamma": "True"}, 
      "inputs": []
    }, 
    {
      "op": "null", 
      "name": "in3A_conv4_3*3_batchnorm_beta", 
      "attrs": {"fix_gamma": "True"}, 
      "inputs": []
    }, 
    {
      "op": "null", 
      "name": "in3A_conv4_3*3_batchnorm_moving_mean", 
      "attrs": {
        "__init__": "[\"zero\", {}]", 
        "fix_gamma": "True"
      }, 
      "inputs": []
    }, 
    {
      "op": "null", 
      "name": "in3A_conv4_3*3_batchnorm_moving_var", 
      "attrs": {
        "__init__": "[\"one\", {}]", 
        "fix_gamma": "True"
      }, 
      "inputs": []
    }, 
    {
      "op": "BatchNorm", 
      "name": "in3A_conv4_3*3_batchnorm", 
      "attrs": {"fix_gamma": "True"}, 
      "inputs": [[237, 0, 0], [238, 0, 0], [239, 0, 0], [240, 0, 1], [241, 0, 1]]
    }, 
    {
      "op": "Activation", 
      "name": "in3A_conv4_3*3_relu", 
      "attrs": {"act_type": "relu"}, 
      "inputs": [[242, 0, 0]]
    }, 
    {
      "op": "null", 
      "name": "in3A_conv5_1*1_conv2d_weight", 
      "attrs": {
        "kernel": "(1, 1)", 
        "no_bias": "True", 
        "num_filter": "64", 
        "pad": "(0, 0)", 
        "stride": "(1, 1)"
      }, 
      "inputs": []
    }, 
    {
      "op": "Convolution", 
      "name": "in3A_conv5_1*1_conv2d", 
      "attrs": {
        "kernel": "(1, 1)", 
        "no_bias": "True", 
        "num_filter": "64", 
        "pad": "(0, 0)", 
        "stride": "(1, 1)"
      }, 
      "inputs": [[210, 0, 0], [244, 0, 0]]
    }, 
    {
      "op": "null", 
      "name": "in3A_conv5_1*1_batchnorm_gamma", 
      "attrs": {"fix_gamma": "True"}, 
      "inputs": []
    }, 
    {
      "op": "null", 
      "name": "in3A_conv5_1*1_batchnorm_beta", 
      "attrs": {"fix_gamma": "True"}, 
      "inputs": []
    }, 
    {
      "op": "null", 
      "name": "in3A_conv5_1*1_batchnorm_moving_mean", 
      "attrs": {
        "__init__": "[\"zero\", {}]", 
        "fix_gamma": "True"
      }, 
      "inputs": []
    }, 
    {
      "op": "null", 
      "name": "in3A_conv5_1*1_batchnorm_moving_var", 
      "attrs": {
        "__init__": "[\"one\", {}]", 
        "fix_gamma": "True"
      }, 
      "inputs": []
    }, 
    {
      "op": "BatchNorm", 
      "name": "in3A_conv5_1*1_batchnorm", 
      "attrs": {"fix_gamma": "True"}, 
      "inputs": [[245, 0, 0], [246, 0, 0], [247, 0, 0], [248, 0, 1], [249, 0, 1]]
    }, 
    {
      "op": "Activation", 
      "name": "in3A_conv5_1*1_relu", 
      "attrs": {"act_type": "relu"}, 
      "inputs": [[250, 0, 0]]
    }, 
    {
      "op": "null", 
      "name": "in3A_conv6_3*3_conv2d_weight", 
      "attrs": {
        "kernel": "(3, 3)", 
        "no_bias": "True", 
        "num_filter": "96", 
        "pad": "(1, 1)", 
        "stride": "(1, 1)"
      }, 
      "inputs": []
    }, 
    {
      "op": "Convolution", 
      "name": "in3A_conv6_3*3_conv2d", 
      "attrs": {
        "kernel": "(3, 3)", 
        "no_bias": "True", 
        "num_filter": "96", 
        "pad": "(1, 1)", 
        "stride": "(1, 1)"
      }, 
      "inputs": [[251, 0, 0], [252, 0, 0]]
    }, 
    {
      "op": "null", 
      "name": "in3A_conv6_3*3_batchnorm_gamma", 
      "attrs": {"fix_gamma": "True"}, 
      "inputs": []
    }, 
    {
      "op": "null", 
      "name": "in3A_conv6_3*3_batchnorm_beta", 
      "attrs": {"fix_gamma": "True"}, 
      "inputs": []
    }, 
    {
      "op": "null", 
      "name": "in3A_conv6_3*3_batchnorm_moving_mean", 
      "attrs": {
        "__init__": "[\"zero\", {}]", 
        "fix_gamma": "True"
      }, 
      "inputs": []
    }, 
    {
      "op": "null", 
      "name": "in3A_conv6_3*3_batchnorm_moving_var", 
      "attrs": {
        "__init__": "[\"one\", {}]", 
        "fix_gamma": "True"
      }, 
      "inputs": []
    }, 
    {
      "op": "BatchNorm", 
      "name": "in3A_conv6_3*3_batchnorm", 
      "attrs": {"fix_gamma": "True"}, 
      "inputs": [[253, 0, 0], [254, 0, 0], [255, 0, 0], [256, 0, 1], [257, 0, 1]]
    }, 
    {
      "op": "Activation", 
      "name": "in3A_conv6_3*3_relu", 
      "attrs": {"act_type": "relu"}, 
      "inputs": [[258, 0, 0]]
    }, 
    {
      "op": "null", 
      "name": "in3A_conv7_3*3_conv2d_weight", 
      "attrs": {
        "kernel": "(3, 3)", 
        "no_bias": "True", 
        "num_filter": "96", 
        "pad": "(1, 1)", 
        "stride": "(1, 1)"
      }, 
      "inputs": []
    }, 
    {
      "op": "Convolution", 
      "name": "in3A_conv7_3*3_conv2d", 
      "attrs": {
        "kernel": "(3, 3)", 
        "no_bias": "True", 
        "num_filter": "96", 
        "pad": "(1, 1)", 
        "stride": "(1, 1)"
      }, 
      "inputs": [[259, 0, 0], [260, 0, 0]]
    }, 
    {
      "op": "null", 
      "name": "in3A_conv7_3*3_batchnorm_gamma", 
      "attrs": {"fix_gamma": "True"}, 
      "inputs": []
    }, 
    {
      "op": "null", 
      "name": "in3A_conv7_3*3_batchnorm_beta", 
      "attrs": {"fix_gamma": "True"}, 
      "inputs": []
    }, 
    {
      "op": "null", 
      "name": "in3A_conv7_3*3_batchnorm_moving_mean", 
      "attrs": {
        "__init__": "[\"zero\", {}]", 
        "fix_gamma": "True"
      }, 
      "inputs": []
    }, 
    {
      "op": "null", 
      "name": "in3A_conv7_3*3_batchnorm_moving_var", 
      "attrs": {
        "__init__": "[\"one\", {}]", 
        "fix_gamma": "True"
      }, 
      "inputs": []
    }, 
    {
      "op": "BatchNorm", 
      "name": "in3A_conv7_3*3_batchnorm", 
      "attrs": {"fix_gamma": "True"}, 
      "inputs": [[261, 0, 0], [262, 0, 0], [263, 0, 0], [264, 0, 1], [265, 0, 1]]
    }, 
    {
      "op": "Activation", 
      "name": "in3A_conv7_3*3_relu", 
      "attrs": {"act_type": "relu"}, 
      "inputs": [[266, 0, 0]]
    }, 
    {
      "op": "Concat", 
      "name": "in3A_concat_1", 
      "attrs": {"num_args": "4"}, 
      "inputs": [[219, 0, 0], [227, 0, 0], [243, 0, 0], [267, 0, 0]]
    }, 
    {
      "op": "Pooling", 
      "name": "in4A_avgpool_1", 
      "attrs": {
        "kernel": "(3, 3)", 
        "pad": "(1, 1)", 
        "pool_type": "avg"
      }, 
      "inputs": [[268, 0, 0]]
    }, 
    {
      "op": "null", 
      "name": "in4A_conv1_1*1_conv2d_weight", 
      "attrs": {
        "kernel": "(1, 1)", 
        "no_bias": "True", 
        "num_filter": "96", 
        "pad": "(0, 0)", 
        "stride": "(1, 1)"
      }, 
      "inputs": []
    }, 
    {
      "op": "Convolution", 
      "name": "in4A_conv1_1*1_conv2d", 
      "attrs": {
        "kernel": "(1, 1)", 
        "no_bias": "True", 
        "num_filter": "96", 
        "pad": "(0, 0)", 
        "stride": "(1, 1)"
      }, 
      "inputs": [[269, 0, 0], [270, 0, 0]]
    }, 
    {
      "op": "null", 
      "name": "in4A_conv1_1*1_batchnorm_gamma", 
      "attrs": {"fix_gamma": "True"}, 
      "inputs": []
    }, 
    {
      "op": "null", 
      "name": "in4A_conv1_1*1_batchnorm_beta", 
      "attrs": {"fix_gamma": "True"}, 
      "inputs": []
    }, 
    {
      "op": "null", 
      "name": "in4A_conv1_1*1_batchnorm_moving_mean", 
      "attrs": {
        "__init__": "[\"zero\", {}]", 
        "fix_gamma": "True"
      }, 
      "inputs": []
    }, 
    {
      "op": "null", 
      "name": "in4A_conv1_1*1_batchnorm_moving_var", 
      "attrs": {
        "__init__": "[\"one\", {}]", 
        "fix_gamma": "True"
      }, 
      "inputs": []
    }, 
    {
      "op": "BatchNorm", 
      "name": "in4A_conv1_1*1_batchnorm", 
      "attrs": {"fix_gamma": "True"}, 
      "inputs": [[271, 0, 0], [272, 0, 0], [273, 0, 0], [274, 0, 1], [275, 0, 1]]
    }, 
    {
      "op": "Activation", 
      "name": "in4A_conv1_1*1_relu", 
      "attrs": {"act_type": "relu"}, 
      "inputs": [[276, 0, 0]]
    }, 
    {
      "op": "null", 
      "name": "in4A_conv2_1*1_conv2d_weight", 
      "attrs": {
        "kernel": "(1, 1)", 
        "no_bias": "True", 
        "num_filter": "96", 
        "pad": "(0, 0)", 
        "stride": "(1, 1)"
      }, 
      "inputs": []
    }, 
    {
      "op": "Convolution", 
      "name": "in4A_conv2_1*1_conv2d", 
      "attrs": {
        "kernel": "(1, 1)", 
        "no_bias": "True", 
        "num_filter": "96", 
        "pad": "(0, 0)", 
        "stride": "(1, 1)"
      }, 
      "inputs": [[268, 0, 0], [278, 0, 0]]
    }, 
    {
      "op": "null", 
      "name": "in4A_conv2_1*1_batchnorm_gamma", 
      "attrs": {"fix_gamma": "True"}, 
      "inputs": []
    }, 
    {
      "op": "null", 
      "name": "in4A_conv2_1*1_batchnorm_beta", 
      "attrs": {"fix_gamma": "True"}, 
      "inputs": []
    }, 
    {
      "op": "null", 
      "name": "in4A_conv2_1*1_batchnorm_moving_mean", 
      "attrs": {
        "__init__": "[\"zero\", {}]", 
        "fix_gamma": "True"
      }, 
      "inputs": []
    }, 
    {
      "op": "null", 
      "name": "in4A_conv2_1*1_batchnorm_moving_var", 
      "attrs": {
        "__init__": "[\"one\", {}]", 
        "fix_gamma": "True"
      }, 
      "inputs": []
    }, 
    {
      "op": "BatchNorm", 
      "name": "in4A_conv2_1*1_batchnorm", 
      "attrs": {"fix_gamma": "True"}, 
      "inputs": [[279, 0, 0], [280, 0, 0], [281, 0, 0], [282, 0, 1], [283, 0, 1]]
    }, 
    {
      "op": "Activation", 
      "name": "in4A_conv2_1*1_relu", 
      "attrs": {"act_type": "relu"}, 
      "inputs": [[284, 0, 0]]
    }, 
    {
      "op": "null", 
      "name": "in4A_conv3_1*1_conv2d_weight", 
      "attrs": {
        "kernel": "(1, 1)", 
        "no_bias": "True", 
        "num_filter": "64", 
        "pad": "(0, 0)", 
        "stride": "(1, 1)"
      }, 
      "inputs": []
    }, 
    {
      "op": "Convolution", 
      "name": "in4A_conv3_1*1_conv2d", 
      "attrs": {
        "kernel": "(1, 1)", 
        "no_bias": "True", 
        "num_filter": "64", 
        "pad": "(0, 0)", 
        "stride": "(1, 1)"
      }, 
      "inputs": [[268, 0, 0], [286, 0, 0]]
    }, 
    {
      "op": "null", 
      "name": "in4A_conv3_1*1_batchnorm_gamma", 
      "attrs": {"fix_gamma": "True"}, 
      "inputs": []
    }, 
    {
      "op": "null", 
      "name": "in4A_conv3_1*1_batchnorm_beta", 
      "attrs": {"fix_gamma": "True"}, 
      "inputs": []
    }, 
    {
      "op": "null", 
      "name": "in4A_conv3_1*1_batchnorm_moving_mean", 
      "attrs": {
        "__init__": "[\"zero\", {}]", 
        "fix_gamma": "True"
      }, 
      "inputs": []
    }, 
    {
      "op": "null", 
      "name": "in4A_conv3_1*1_batchnorm_moving_var", 
      "attrs": {
        "__init__": "[\"one\", {}]", 
        "fix_gamma": "True"
      }, 
      "inputs": []
    }, 
    {
      "op": "BatchNorm", 
      "name": "in4A_conv3_1*1_batchnorm", 
      "attrs": {"fix_gamma": "True"}, 
      "inputs": [[287, 0, 0], [288, 0, 0], [289, 0, 0], [290, 0, 1], [291, 0, 1]]
    }, 
    {
      "op": "Activation", 
      "name": "in4A_conv3_1*1_relu", 
      "attrs": {"act_type": "relu"}, 
      "inputs": [[292, 0, 0]]
    }, 
    {
      "op": "null", 
      "name": "in4A_conv4_3*3_conv2d_weight", 
      "attrs": {
        "kernel": "(3, 3)", 
        "no_bias": "True", 
        "num_filter": "96", 
        "pad": "(1, 1)", 
        "stride": "(1, 1)"
      }, 
      "inputs": []
    }, 
    {
      "op": "Convolution", 
      "name": "in4A_conv4_3*3_conv2d", 
      "attrs": {
        "kernel": "(3, 3)", 
        "no_bias": "True", 
        "num_filter": "96", 
        "pad": "(1, 1)", 
        "stride": "(1, 1)"
      }, 
      "inputs": [[293, 0, 0], [294, 0, 0]]
    }, 
    {
      "op": "null", 
      "name": "in4A_conv4_3*3_batchnorm_gamma", 
      "attrs": {"fix_gamma": "True"}, 
      "inputs": []
    }, 
    {
      "op": "null", 
      "name": "in4A_conv4_3*3_batchnorm_beta", 
      "attrs": {"fix_gamma": "True"}, 
      "inputs": []
    }, 
    {
      "op": "null", 
      "name": "in4A_conv4_3*3_batchnorm_moving_mean", 
      "attrs": {
        "__init__": "[\"zero\", {}]", 
        "fix_gamma": "True"
      }, 
      "inputs": []
    }, 
    {
      "op": "null", 
      "name": "in4A_conv4_3*3_batchnorm_moving_var", 
      "attrs": {
        "__init__": "[\"one\", {}]", 
        "fix_gamma": "True"
      }, 
      "inputs": []
    }, 
    {
      "op": "BatchNorm", 
      "name": "in4A_conv4_3*3_batchnorm", 
      "attrs": {"fix_gamma": "True"}, 
      "inputs": [[295, 0, 0], [296, 0, 0], [297, 0, 0], [298, 0, 1], [299, 0, 1]]
    }, 
    {
      "op": "Activation", 
      "name": "in4A_conv4_3*3_relu", 
      "attrs": {"act_type": "relu"}, 
      "inputs": [[300, 0, 0]]
    }, 
    {
      "op": "null", 
      "name": "in4A_conv5_1*1_conv2d_weight", 
      "attrs": {
        "kernel": "(1, 1)", 
        "no_bias": "True", 
        "num_filter": "64", 
        "pad": "(0, 0)", 
        "stride": "(1, 1)"
      }, 
      "inputs": []
    }, 
    {
      "op": "Convolution", 
      "name": "in4A_conv5_1*1_conv2d", 
      "attrs": {
        "kernel": "(1, 1)", 
        "no_bias": "True", 
        "num_filter": "64", 
        "pad": "(0, 0)", 
        "stride": "(1, 1)"
      }, 
      "inputs": [[268, 0, 0], [302, 0, 0]]
    }, 
    {
      "op": "null", 
      "name": "in4A_conv5_1*1_batchnorm_gamma", 
      "attrs": {"fix_gamma": "True"}, 
      "inputs": []
    }, 
    {
      "op": "null", 
      "name": "in4A_conv5_1*1_batchnorm_beta", 
      "attrs": {"fix_gamma": "True"}, 
      "inputs": []
    }, 
    {
      "op": "null", 
      "name": "in4A_conv5_1*1_batchnorm_moving_mean", 
      "attrs": {
        "__init__": "[\"zero\", {}]", 
        "fix_gamma": "True"
      }, 
      "inputs": []
    }, 
    {
      "op": "null", 
      "name": "in4A_conv5_1*1_batchnorm_moving_var", 
      "attrs": {
        "__init__": "[\"one\", {}]", 
        "fix_gamma": "True"
      }, 
      "inputs": []
    }, 
    {
      "op": "BatchNorm", 
      "name": "in4A_conv5_1*1_batchnorm", 
      "attrs": {"fix_gamma": "True"}, 
      "inputs": [[303, 0, 0], [304, 0, 0], [305, 0, 0], [306, 0, 1], [307, 0, 1]]
    }, 
    {
      "op": "Activation", 
      "name": "in4A_conv5_1*1_relu", 
      "attrs": {"act_type": "relu"}, 
      "inputs": [[308, 0, 0]]
    }, 
    {
      "op": "null", 
      "name": "in4A_conv6_3*3_conv2d_weight", 
      "attrs": {
        "kernel": "(3, 3)", 
        "no_bias": "True", 
        "num_filter": "96", 
        "pad": "(1, 1)", 
        "stride": "(1, 1)"
      }, 
      "inputs": []
    }, 
    {
      "op": "Convolution", 
      "name": "in4A_conv6_3*3_conv2d", 
      "attrs": {
        "kernel": "(3, 3)", 
        "no_bias": "True", 
        "num_filter": "96", 
        "pad": "(1, 1)", 
        "stride": "(1, 1)"
      }, 
      "inputs": [[309, 0, 0], [310, 0, 0]]
    }, 
    {
      "op": "null", 
      "name": "in4A_conv6_3*3_batchnorm_gamma", 
      "attrs": {"fix_gamma": "True"}, 
      "inputs": []
    }, 
    {
      "op": "null", 
      "name": "in4A_conv6_3*3_batchnorm_beta", 
      "attrs": {"fix_gamma": "True"}, 
      "inputs": []
    }, 
    {
      "op": "null", 
      "name": "in4A_conv6_3*3_batchnorm_moving_mean", 
      "attrs": {
        "__init__": "[\"zero\", {}]", 
        "fix_gamma": "True"
      }, 
      "inputs": []
    }, 
    {
      "op": "null", 
      "name": "in4A_conv6_3*3_batchnorm_moving_var", 
      "attrs": {
        "__init__": "[\"one\", {}]", 
        "fix_gamma": "True"
      }, 
      "inputs": []
    }, 
    {
      "op": "BatchNorm", 
      "name": "in4A_conv6_3*3_batchnorm", 
      "attrs": {"fix_gamma": "True"}, 
      "inputs": [[311, 0, 0], [312, 0, 0], [313, 0, 0], [314, 0, 1], [315, 0, 1]]
    }, 
    {
      "op": "Activation", 
      "name": "in4A_conv6_3*3_relu", 
      "attrs": {"act_type": "relu"}, 
      "inputs": [[316, 0, 0]]
    }, 
    {
      "op": "null", 
      "name": "in4A_conv7_3*3_conv2d_weight", 
      "attrs": {
        "kernel": "(3, 3)", 
        "no_bias": "True", 
        "num_filter": "96", 
        "pad": "(1, 1)", 
        "stride": "(1, 1)"
      }, 
      "inputs": []
    }, 
    {
      "op": "Convolution", 
      "name": "in4A_conv7_3*3_conv2d", 
      "attrs": {
        "kernel": "(3, 3)", 
        "no_bias": "True", 
        "num_filter": "96", 
        "pad": "(1, 1)", 
        "stride": "(1, 1)"
      }, 
      "inputs": [[317, 0, 0], [318, 0, 0]]
    }, 
    {
      "op": "null", 
      "name": "in4A_conv7_3*3_batchnorm_gamma", 
      "attrs": {"fix_gamma": "True"}, 
      "inputs": []
    }, 
    {
      "op": "null", 
      "name": "in4A_conv7_3*3_batchnorm_beta", 
      "attrs": {"fix_gamma": "True"}, 
      "inputs": []
    }, 
    {
      "op": "null", 
      "name": "in4A_conv7_3*3_batchnorm_moving_mean", 
      "attrs": {
        "__init__": "[\"zero\", {}]", 
        "fix_gamma": "True"
      }, 
      "inputs": []
    }, 
    {
      "op": "null", 
      "name": "in4A_conv7_3*3_batchnorm_moving_var", 
      "attrs": {
        "__init__": "[\"one\", {}]", 
        "fix_gamma": "True"
      }, 
      "inputs": []
    }, 
    {
      "op": "BatchNorm", 
      "name": "in4A_conv7_3*3_batchnorm", 
      "attrs": {"fix_gamma": "True"}, 
      "inputs": [[319, 0, 0], [320, 0, 0], [321, 0, 0], [322, 0, 1], [323, 0, 1]]
    }, 
    {
      "op": "Activation", 
      "name": "in4A_conv7_3*3_relu", 
      "attrs": {"act_type": "relu"}, 
      "inputs": [[324, 0, 0]]
    }, 
    {
      "op": "Concat", 
      "name": "in4A_concat_1", 
      "attrs": {"num_args": "4"}, 
      "inputs": [[277, 0, 0], [285, 0, 0], [301, 0, 0], [325, 0, 0]]
    }, 
    {
      "op": "Pooling", 
      "name": "re1A_maxpool_1", 
      "attrs": {
        "kernel": "(3, 3)", 
        "pool_type": "max", 
        "stride": "(2, 2)"
      }, 
      "inputs": [[326, 0, 0]]
    }, 
    {
      "op": "null", 
      "name": "re1A_conv1_3*3_conv2d_weight", 
      "attrs": {
        "kernel": "(3, 3)", 
        "no_bias": "True", 
        "num_filter": "384", 
        "pad": "(0, 0)", 
        "stride": "(2, 2)"
      }, 
      "inputs": []
    }, 
    {
      "op": "Convolution", 
      "name": "re1A_conv1_3*3_conv2d", 
      "attrs": {
        "kernel": "(3, 3)", 
        "no_bias": "True", 
        "num_filter": "384", 
        "pad": "(0, 0)", 
        "stride": "(2, 2)"
      }, 
      "inputs": [[326, 0, 0], [328, 0, 0]]
    }, 
    {
      "op": "null", 
      "name": "re1A_conv1_3*3_batchnorm_gamma", 
      "attrs": {"fix_gamma": "True"}, 
      "inputs": []
    }, 
    {
      "op": "null", 
      "name": "re1A_conv1_3*3_batchnorm_beta", 
      "attrs": {"fix_gamma": "True"}, 
      "inputs": []
    }, 
    {
      "op": "null", 
      "name": "re1A_conv1_3*3_batchnorm_moving_mean", 
      "attrs": {
        "__init__": "[\"zero\", {}]", 
        "fix_gamma": "True"
      }, 
      "inputs": []
    }, 
    {
      "op": "null", 
      "name": "re1A_conv1_3*3_batchnorm_moving_var", 
      "attrs": {
        "__init__": "[\"one\", {}]", 
        "fix_gamma": "True"
      }, 
      "inputs": []
    }, 
    {
      "op": "BatchNorm", 
      "name": "re1A_conv1_3*3_batchnorm", 
      "attrs": {"fix_gamma": "True"}, 
      "inputs": [[329, 0, 0], [330, 0, 0], [331, 0, 0], [332, 0, 1], [333, 0, 1]]
    }, 
    {
      "op": "Activation", 
      "name": "re1A_conv1_3*3_relu", 
      "attrs": {"act_type": "relu"}, 
      "inputs": [[334, 0, 0]]
    }, 
    {
      "op": "null", 
      "name": "re1A_conv2_1*1_conv2d_weight", 
      "attrs": {
        "kernel": "(1, 1)", 
        "no_bias": "True", 
        "num_filter": "192", 
        "pad": "(0, 0)", 
        "stride": "(1, 1)"
      }, 
      "inputs": []
    }, 
    {
      "op": "Convolution", 
      "name": "re1A_conv2_1*1_conv2d", 
      "attrs": {
        "kernel": "(1, 1)", 
        "no_bias": "True", 
        "num_filter": "192", 
        "pad": "(0, 0)", 
        "stride": "(1, 1)"
      }, 
      "inputs": [[326, 0, 0], [336, 0, 0]]
    }, 
    {
      "op": "null", 
      "name": "re1A_conv2_1*1_batchnorm_gamma", 
      "attrs": {"fix_gamma": "True"}, 
      "inputs": []
    }, 
    {
      "op": "null", 
      "name": "re1A_conv2_1*1_batchnorm_beta", 
      "attrs": {"fix_gamma": "True"}, 
      "inputs": []
    }, 
    {
      "op": "null", 
      "name": "re1A_conv2_1*1_batchnorm_moving_mean", 
      "attrs": {
        "__init__": "[\"zero\", {}]", 
        "fix_gamma": "True"
      }, 
      "inputs": []
    }, 
    {
      "op": "null", 
      "name": "re1A_conv2_1*1_batchnorm_moving_var", 
      "attrs": {
        "__init__": "[\"one\", {}]", 
        "fix_gamma": "True"
      }, 
      "inputs": []
    }, 
    {
      "op": "BatchNorm", 
      "name": "re1A_conv2_1*1_batchnorm", 
      "attrs": {"fix_gamma": "True"}, 
      "inputs": [[337, 0, 0], [338, 0, 0], [339, 0, 0], [340, 0, 1], [341, 0, 1]]
    }, 
    {
      "op": "Activation", 
      "name": "re1A_conv2_1*1_relu", 
      "attrs": {"act_type": "relu"}, 
      "inputs": [[342, 0, 0]]
    }, 
    {
      "op": "null", 
      "name": "re1A_conv3_3*3_conv2d_weight", 
      "attrs": {
        "kernel": "(3, 3)", 
        "no_bias": "True", 
        "num_filter": "224", 
        "pad": "(1, 1)", 
        "stride": "(1, 1)"
      }, 
      "inputs": []
    }, 
    {
      "op": "Convolution", 
      "name": "re1A_conv3_3*3_conv2d", 
      "attrs": {
        "kernel": "(3, 3)", 
        "no_bias": "True", 
        "num_filter": "224", 
        "pad": "(1, 1)", 
        "stride": "(1, 1)"
      }, 
      "inputs": [[343, 0, 0], [344, 0, 0]]
    }, 
    {
      "op": "null", 
      "name": "re1A_conv3_3*3_batchnorm_gamma", 
      "attrs": {"fix_gamma": "True"}, 
      "inputs": []
    }, 
    {
      "op": "null", 
      "name": "re1A_conv3_3*3_batchnorm_beta", 
      "attrs": {"fix_gamma": "True"}, 
      "inputs": []
    }, 
    {
      "op": "null", 
      "name": "re1A_conv3_3*3_batchnorm_moving_mean", 
      "attrs": {
        "__init__": "[\"zero\", {}]", 
        "fix_gamma": "True"
      }, 
      "inputs": []
    }, 
    {
      "op": "null", 
      "name": "re1A_conv3_3*3_batchnorm_moving_var", 
      "attrs": {
        "__init__": "[\"one\", {}]", 
        "fix_gamma": "True"
      }, 
      "inputs": []
    }, 
    {
      "op": "BatchNorm", 
      "name": "re1A_conv3_3*3_batchnorm", 
      "attrs": {"fix_gamma": "True"}, 
      "inputs": [[345, 0, 0], [346, 0, 0], [347, 0, 0], [348, 0, 1], [349, 0, 1]]
    }, 
    {
      "op": "Activation", 
      "name": "re1A_conv3_3*3_relu", 
      "attrs": {"act_type": "relu"}, 
      "inputs": [[350, 0, 0]]
    }, 
    {
      "op": "null", 
      "name": "re1A_conv4_3*3_conv2d_weight", 
      "attrs": {
        "kernel": "(3, 3)", 
        "no_bias": "True", 
        "num_filter": "256", 
        "pad": "(0, 0)", 
        "stride": "(2, 2)"
      }, 
      "inputs": []
    }, 
    {
      "op": "Convolution", 
      "name": "re1A_conv4_3*3_conv2d", 
      "attrs": {
        "kernel": "(3, 3)", 
        "no_bias": "True", 
        "num_filter": "256", 
        "pad": "(0, 0)", 
        "stride": "(2, 2)"
      }, 
      "inputs": [[351, 0, 0], [352, 0, 0]]
    }, 
    {
      "op": "null", 
      "name": "re1A_conv4_3*3_batchnorm_gamma", 
      "attrs": {"fix_gamma": "True"}, 
      "inputs": []
    }, 
    {
      "op": "null", 
      "name": "re1A_conv4_3*3_batchnorm_beta", 
      "attrs": {"fix_gamma": "True"}, 
      "inputs": []
    }, 
    {
      "op": "null", 
      "name": "re1A_conv4_3*3_batchnorm_moving_mean", 
      "attrs": {
        "__init__": "[\"zero\", {}]", 
        "fix_gamma": "True"
      }, 
      "inputs": []
    }, 
    {
      "op": "null", 
      "name": "re1A_conv4_3*3_batchnorm_moving_var", 
      "attrs": {
        "__init__": "[\"one\", {}]", 
        "fix_gamma": "True"
      }, 
      "inputs": []
    }, 
    {
      "op": "BatchNorm", 
      "name": "re1A_conv4_3*3_batchnorm", 
      "attrs": {"fix_gamma": "True"}, 
      "inputs": [[353, 0, 0], [354, 0, 0], [355, 0, 0], [356, 0, 1], [357, 0, 1]]
    }, 
    {
      "op": "Activation", 
      "name": "re1A_conv4_3*3_relu", 
      "attrs": {"act_type": "relu"}, 
      "inputs": [[358, 0, 0]]
    }, 
    {
      "op": "Concat", 
      "name": "re1A_concat_1", 
      "attrs": {"num_args": "3"}, 
      "inputs": [[327, 0, 0], [335, 0, 0], [359, 0, 0]]
    }, 
    {
      "op": "Pooling", 
      "name": "in1B_avgpool_1", 
      "attrs": {
        "kernel": "(3, 3)", 
        "pad": "(1, 1)", 
        "pool_type": "avg"
      }, 
      "inputs": [[360, 0, 0]]
    }, 
    {
      "op": "null", 
      "name": "in1B_conv1_1*1_conv2d_weight", 
      "attrs": {
        "kernel": "(1, 1)", 
        "no_bias": "True", 
        "num_filter": "128", 
        "pad": "(0, 0)", 
        "stride": "(1, 1)"
      }, 
      "inputs": []
    }, 
    {
      "op": "Convolution", 
      "name": "in1B_conv1_1*1_conv2d", 
      "attrs": {
        "kernel": "(1, 1)", 
        "no_bias": "True", 
        "num_filter": "128", 
        "pad": "(0, 0)", 
        "stride": "(1, 1)"
      }, 
      "inputs": [[361, 0, 0], [362, 0, 0]]
    }, 
    {
      "op": "null", 
      "name": "in1B_conv1_1*1_batchnorm_gamma", 
      "attrs": {"fix_gamma": "True"}, 
      "inputs": []
    }, 
    {
      "op": "null", 
      "name": "in1B_conv1_1*1_batchnorm_beta", 
      "attrs": {"fix_gamma": "True"}, 
      "inputs": []
    }, 
    {
      "op": "null", 
      "name": "in1B_conv1_1*1_batchnorm_moving_mean", 
      "attrs": {
        "__init__": "[\"zero\", {}]", 
        "fix_gamma": "True"
      }, 
      "inputs": []
    }, 
    {
      "op": "null", 
      "name": "in1B_conv1_1*1_batchnorm_moving_var", 
      "attrs": {
        "__init__": "[\"one\", {}]", 
        "fix_gamma": "True"
      }, 
      "inputs": []
    }, 
    {
      "op": "BatchNorm", 
      "name": "in1B_conv1_1*1_batchnorm", 
      "attrs": {"fix_gamma": "True"}, 
      "inputs": [[363, 0, 0], [364, 0, 0], [365, 0, 0], [366, 0, 1], [367, 0, 1]]
    }, 
    {
      "op": "Activation", 
      "name": "in1B_conv1_1*1_relu", 
      "attrs": {"act_type": "relu"}, 
      "inputs": [[368, 0, 0]]
    }, 
    {
      "op": "null", 
      "name": "in1B_conv2_1*1_conv2d_weight", 
      "attrs": {
        "kernel": "(1, 1)", 
        "no_bias": "True", 
        "num_filter": "384", 
        "pad": "(0, 0)", 
        "stride": "(1, 1)"
      }, 
      "inputs": []
    }, 
    {
      "op": "Convolution", 
      "name": "in1B_conv2_1*1_conv2d", 
      "attrs": {
        "kernel": "(1, 1)", 
        "no_bias": "True", 
        "num_filter": "384", 
        "pad": "(0, 0)", 
        "stride": "(1, 1)"
      }, 
      "inputs": [[360, 0, 0], [370, 0, 0]]
    }, 
    {
      "op": "null", 
      "name": "in1B_conv2_1*1_batchnorm_gamma", 
      "attrs": {"fix_gamma": "True"}, 
      "inputs": []
    }, 
    {
      "op": "null", 
      "name": "in1B_conv2_1*1_batchnorm_beta", 
      "attrs": {"fix_gamma": "True"}, 
      "inputs": []
    }, 
    {
      "op": "null", 
      "name": "in1B_conv2_1*1_batchnorm_moving_mean", 
      "attrs": {
        "__init__": "[\"zero\", {}]", 
        "fix_gamma": "True"
      }, 
      "inputs": []
    }, 
    {
      "op": "null", 
      "name": "in1B_conv2_1*1_batchnorm_moving_var", 
      "attrs": {
        "__init__": "[\"one\", {}]", 
        "fix_gamma": "True"
      }, 
      "inputs": []
    }, 
    {
      "op": "BatchNorm", 
      "name": "in1B_conv2_1*1_batchnorm", 
      "attrs": {"fix_gamma": "True"}, 
      "inputs": [[371, 0, 0], [372, 0, 0], [373, 0, 0], [374, 0, 1], [375, 0, 1]]
    }, 
    {
      "op": "Activation", 
      "name": "in1B_conv2_1*1_relu", 
      "attrs": {"act_type": "relu"}, 
      "inputs": [[376, 0, 0]]
    }, 
    {
      "op": "null", 
      "name": "in1B_conv3_1*1_conv2d_weight", 
      "attrs": {
        "kernel": "(1, 1)", 
        "no_bias": "True", 
        "num_filter": "192", 
        "pad": "(0, 0)", 
        "stride": "(1, 1)"
      }, 
      "inputs": []
    }, 
    {
      "op": "Convolution", 
      "name": "in1B_conv3_1*1_conv2d", 
      "attrs": {
        "kernel": "(1, 1)", 
        "no_bias": "True", 
        "num_filter": "192", 
        "pad": "(0, 0)", 
        "stride": "(1, 1)"
      }, 
      "inputs": [[360, 0, 0], [378, 0, 0]]
    }, 
    {
      "op": "null", 
      "name": "in1B_conv3_1*1_batchnorm_gamma", 
      "attrs": {"fix_gamma": "True"}, 
      "inputs": []
    }, 
    {
      "op": "null", 
      "name": "in1B_conv3_1*1_batchnorm_beta", 
      "attrs": {"fix_gamma": "True"}, 
      "inputs": []
    }, 
    {
      "op": "null", 
      "name": "in1B_conv3_1*1_batchnorm_moving_mean", 
      "attrs": {
        "__init__": "[\"zero\", {}]", 
        "fix_gamma": "True"
      }, 
      "inputs": []
    }, 
    {
      "op": "null", 
      "name": "in1B_conv3_1*1_batchnorm_moving_var", 
      "attrs": {
        "__init__": "[\"one\", {}]", 
        "fix_gamma": "True"
      }, 
      "inputs": []
    }, 
    {
      "op": "BatchNorm", 
      "name": "in1B_conv3_1*1_batchnorm", 
      "attrs": {"fix_gamma": "True"}, 
      "inputs": [[379, 0, 0], [380, 0, 0], [381, 0, 0], [382, 0, 1], [383, 0, 1]]
    }, 
    {
      "op": "Activation", 
      "name": "in1B_conv3_1*1_relu", 
      "attrs": {"act_type": "relu"}, 
      "inputs": [[384, 0, 0]]
    }, 
    {
      "op": "null", 
      "name": "in1B_conv4_1*7_conv2d_weight", 
      "attrs": {
        "kernel": "(1, 7)", 
        "no_bias": "True", 
        "num_filter": "224", 
        "pad": "(0, 3)", 
        "stride": "(1, 1)"
      }, 
      "inputs": []
    }, 
    {
      "op": "Convolution", 
      "name": "in1B_conv4_1*7_conv2d", 
      "attrs": {
        "kernel": "(1, 7)", 
        "no_bias": "True", 
        "num_filter": "224", 
        "pad": "(0, 3)", 
        "stride": "(1, 1)"
      }, 
      "inputs": [[385, 0, 0], [386, 0, 0]]
    }, 
    {
      "op": "null", 
      "name": "in1B_conv4_1*7_batchnorm_gamma", 
      "attrs": {"fix_gamma": "True"}, 
      "inputs": []
    }, 
    {
      "op": "null", 
      "name": "in1B_conv4_1*7_batchnorm_beta", 
      "attrs": {"fix_gamma": "True"}, 
      "inputs": []
    }, 
    {
      "op": "null", 
      "name": "in1B_conv4_1*7_batchnorm_moving_mean", 
      "attrs": {
        "__init__": "[\"zero\", {}]", 
        "fix_gamma": "True"
      }, 
      "inputs": []
    }, 
    {
      "op": "null", 
      "name": "in1B_conv4_1*7_batchnorm_moving_var", 
      "attrs": {
        "__init__": "[\"one\", {}]", 
        "fix_gamma": "True"
      }, 
      "inputs": []
    }, 
    {
      "op": "BatchNorm", 
      "name": "in1B_conv4_1*7_batchnorm", 
      "attrs": {"fix_gamma": "True"}, 
      "inputs": [[387, 0, 0], [388, 0, 0], [389, 0, 0], [390, 0, 1], [391, 0, 1]]
    }, 
    {
      "op": "Activation", 
      "name": "in1B_conv4_1*7_relu", 
      "attrs": {"act_type": "relu"}, 
      "inputs": [[392, 0, 0]]
    }, 
    {
      "op": "null", 
      "name": "in1B_conv5_1*7_conv2d_weight", 
      "attrs": {
        "kernel": "(7, 1)", 
        "no_bias": "True", 
        "num_filter": "256", 
        "pad": "(3, 0)", 
        "stride": "(1, 1)"
      }, 
      "inputs": []
    }, 
    {
      "op": "Convolution", 
      "name": "in1B_conv5_1*7_conv2d", 
      "attrs": {
        "kernel": "(7, 1)", 
        "no_bias": "True", 
        "num_filter": "256", 
        "pad": "(3, 0)", 
        "stride": "(1, 1)"
      }, 
      "inputs": [[393, 0, 0], [394, 0, 0]]
    }, 
    {
      "op": "null", 
      "name": "in1B_conv5_1*7_batchnorm_gamma", 
      "attrs": {"fix_gamma": "True"}, 
      "inputs": []
    }, 
    {
      "op": "null", 
      "name": "in1B_conv5_1*7_batchnorm_beta", 
      "attrs": {"fix_gamma": "True"}, 
      "inputs": []
    }, 
    {
      "op": "null", 
      "name": "in1B_conv5_1*7_batchnorm_moving_mean", 
      "attrs": {
        "__init__": "[\"zero\", {}]", 
        "fix_gamma": "True"
      }, 
      "inputs": []
    }, 
    {
      "op": "null", 
      "name": "in1B_conv5_1*7_batchnorm_moving_var", 
      "attrs": {
        "__init__": "[\"one\", {}]", 
        "fix_gamma": "True"
      }, 
      "inputs": []
    }, 
    {
      "op": "BatchNorm", 
      "name": "in1B_conv5_1*7_batchnorm", 
      "attrs": {"fix_gamma": "True"}, 
      "inputs": [[395, 0, 0], [396, 0, 0], [397, 0, 0], [398, 0, 1], [399, 0, 1]]
    }, 
    {
      "op": "Activation", 
      "name": "in1B_conv5_1*7_relu", 
      "attrs": {"act_type": "relu"}, 
      "inputs": [[400, 0, 0]]
    }, 
    {
      "op": "null", 
      "name": "in1B_conv6_1*1_conv2d_weight", 
      "attrs": {
        "kernel": "(1, 1)", 
        "no_bias": "True", 
        "num_filter": "192", 
        "pad": "(0, 0)", 
        "stride": "(1, 1)"
      }, 
      "inputs": []
    }, 
    {
      "op": "Convolution", 
      "name": "in1B_conv6_1*1_conv2d", 
      "attrs": {
        "kernel": "(1, 1)", 
        "no_bias": "True", 
        "num_filter": "192", 
        "pad": "(0, 0)", 
        "stride": "(1, 1)"
      }, 
      "inputs": [[360, 0, 0], [402, 0, 0]]
    }, 
    {
      "op": "null", 
      "name": "in1B_conv6_1*1_batchnorm_gamma", 
      "attrs": {"fix_gamma": "True"}, 
      "inputs": []
    }, 
    {
      "op": "null", 
      "name": "in1B_conv6_1*1_batchnorm_beta", 
      "attrs": {"fix_gamma": "True"}, 
      "inputs": []
    }, 
    {
      "op": "null", 
      "name": "in1B_conv6_1*1_batchnorm_moving_mean", 
      "attrs": {
        "__init__": "[\"zero\", {}]", 
        "fix_gamma": "True"
      }, 
      "inputs": []
    }, 
    {
      "op": "null", 
      "name": "in1B_conv6_1*1_batchnorm_moving_var", 
      "attrs": {
        "__init__": "[\"one\", {}]", 
        "fix_gamma": "True"
      }, 
      "inputs": []
    }, 
    {
      "op": "BatchNorm", 
      "name": "in1B_conv6_1*1_batchnorm", 
      "attrs": {"fix_gamma": "True"}, 
      "inputs": [[403, 0, 0], [404, 0, 0], [405, 0, 0], [406, 0, 1], [407, 0, 1]]
    }, 
    {
      "op": "Activation", 
      "name": "in1B_conv6_1*1_relu", 
      "attrs": {"act_type": "relu"}, 
      "inputs": [[408, 0, 0]]
    }, 
    {
      "op": "null", 
      "name": "in1B_conv7_1*7_conv2d_weight", 
      "attrs": {
        "kernel": "(1, 7)", 
        "no_bias": "True", 
        "num_filter": "192", 
        "pad": "(0, 3)", 
        "stride": "(1, 1)"
      }, 
      "inputs": []
    }, 
    {
      "op": "Convolution", 
      "name": "in1B_conv7_1*7_conv2d", 
      "attrs": {
        "kernel": "(1, 7)", 
        "no_bias": "True", 
        "num_filter": "192", 
        "pad": "(0, 3)", 
        "stride": "(1, 1)"
      }, 
      "inputs": [[409, 0, 0], [410, 0, 0]]
    }, 
    {
      "op": "null", 
      "name": "in1B_conv7_1*7_batchnorm_gamma", 
      "attrs": {"fix_gamma": "True"}, 
      "inputs": []
    }, 
    {
      "op": "null", 
      "name": "in1B_conv7_1*7_batchnorm_beta", 
      "attrs": {"fix_gamma": "True"}, 
      "inputs": []
    }, 
    {
      "op": "null", 
      "name": "in1B_conv7_1*7_batchnorm_moving_mean", 
      "attrs": {
        "__init__": "[\"zero\", {}]", 
        "fix_gamma": "True"
      }, 
      "inputs": []
    }, 
    {
      "op": "null", 
      "name": "in1B_conv7_1*7_batchnorm_moving_var", 
      "attrs": {
        "__init__": "[\"one\", {}]", 
        "fix_gamma": "True"
      }, 
      "inputs": []
    }, 
    {
      "op": "BatchNorm", 
      "name": "in1B_conv7_1*7_batchnorm", 
      "attrs": {"fix_gamma": "True"}, 
      "inputs": [[411, 0, 0], [412, 0, 0], [413, 0, 0], [414, 0, 1], [415, 0, 1]]
    }, 
    {
      "op": "Activation", 
      "name": "in1B_conv7_1*7_relu", 
      "attrs": {"act_type": "relu"}, 
      "inputs": [[416, 0, 0]]
    }, 
    {
      "op": "null", 
      "name": "in1B_conv8_7*1_conv2d_weight", 
      "attrs": {
        "kernel": "(7, 1)", 
        "no_bias": "True", 
        "num_filter": "224", 
        "pad": "(3, 0)", 
        "stride": "(1, 1)"
      }, 
      "inputs": []
    }, 
    {
      "op": "Convolution", 
      "name": "in1B_conv8_7*1_conv2d", 
      "attrs": {
        "kernel": "(7, 1)", 
        "no_bias": "True", 
        "num_filter": "224", 
        "pad": "(3, 0)", 
        "stride": "(1, 1)"
      }, 
      "inputs": [[417, 0, 0], [418, 0, 0]]
    }, 
    {
      "op": "null", 
      "name": "in1B_conv8_7*1_batchnorm_gamma", 
      "attrs": {"fix_gamma": "True"}, 
      "inputs": []
    }, 
    {
      "op": "null", 
      "name": "in1B_conv8_7*1_batchnorm_beta", 
      "attrs": {"fix_gamma": "True"}, 
      "inputs": []
    }, 
    {
      "op": "null", 
      "name": "in1B_conv8_7*1_batchnorm_moving_mean", 
      "attrs": {
        "__init__": "[\"zero\", {}]", 
        "fix_gamma": "True"
      }, 
      "inputs": []
    }, 
    {
      "op": "null", 
      "name": "in1B_conv8_7*1_batchnorm_moving_var", 
      "attrs": {
        "__init__": "[\"one\", {}]", 
        "fix_gamma": "True"
      }, 
      "inputs": []
    }, 
    {
      "op": "BatchNorm", 
      "name": "in1B_conv8_7*1_batchnorm", 
      "attrs": {"fix_gamma": "True"}, 
      "inputs": [[419, 0, 0], [420, 0, 0], [421, 0, 0], [422, 0, 1], [423, 0, 1]]
    }, 
    {
      "op": "Activation", 
      "name": "in1B_conv8_7*1_relu", 
      "attrs": {"act_type": "relu"}, 
      "inputs": [[424, 0, 0]]
    }, 
    {
      "op": "null", 
      "name": "in1B_conv9_1*7_conv2d_weight", 
      "attrs": {
        "kernel": "(1, 7)", 
        "no_bias": "True", 
        "num_filter": "224", 
        "pad": "(0, 3)", 
        "stride": "(1, 1)"
      }, 
      "inputs": []
    }, 
    {
      "op": "Convolution", 
      "name": "in1B_conv9_1*7_conv2d", 
      "attrs": {
        "kernel": "(1, 7)", 
        "no_bias": "True", 
        "num_filter": "224", 
        "pad": "(0, 3)", 
        "stride": "(1, 1)"
      }, 
      "inputs": [[425, 0, 0], [426, 0, 0]]
    }, 
    {
      "op": "null", 
      "name": "in1B_conv9_1*7_batchnorm_gamma", 
      "attrs": {"fix_gamma": "True"}, 
      "inputs": []
    }, 
    {
      "op": "null", 
      "name": "in1B_conv9_1*7_batchnorm_beta", 
      "attrs": {"fix_gamma": "True"}, 
      "inputs": []
    }, 
    {
      "op": "null", 
      "name": "in1B_conv9_1*7_batchnorm_moving_mean", 
      "attrs": {
        "__init__": "[\"zero\", {}]", 
        "fix_gamma": "True"
      }, 
      "inputs": []
    }, 
    {
      "op": "null", 
      "name": "in1B_conv9_1*7_batchnorm_moving_var", 
      "attrs": {
        "__init__": "[\"one\", {}]", 
        "fix_gamma": "True"
      }, 
      "inputs": []
    }, 
    {
      "op": "BatchNorm", 
      "name": "in1B_conv9_1*7_batchnorm", 
      "attrs": {"fix_gamma": "True"}, 
      "inputs": [[427, 0, 0], [428, 0, 0], [429, 0, 0], [430, 0, 1], [431, 0, 1]]
    }, 
    {
      "op": "Activation", 
      "name": "in1B_conv9_1*7_relu", 
      "attrs": {"act_type": "relu"}, 
      "inputs": [[432, 0, 0]]
    }, 
    {
      "op": "null", 
      "name": "in1B_conv10_7*1_conv2d_weight", 
      "attrs": {
        "kernel": "(7, 1)", 
        "no_bias": "True", 
        "num_filter": "256", 
        "pad": "(3, 0)", 
        "stride": "(1, 1)"
      }, 
      "inputs": []
    }, 
    {
      "op": "Convolution", 
      "name": "in1B_conv10_7*1_conv2d", 
      "attrs": {
        "kernel": "(7, 1)", 
        "no_bias": "True", 
        "num_filter": "256", 
        "pad": "(3, 0)", 
        "stride": "(1, 1)"
      }, 
      "inputs": [[433, 0, 0], [434, 0, 0]]
    }, 
    {
      "op": "null", 
      "name": "in1B_conv10_7*1_batchnorm_gamma", 
      "attrs": {"fix_gamma": "True"}, 
      "inputs": []
    }, 
    {
      "op": "null", 
      "name": "in1B_conv10_7*1_batchnorm_beta", 
      "attrs": {"fix_gamma": "True"}, 
      "inputs": []
    }, 
    {
      "op": "null", 
      "name": "in1B_conv10_7*1_batchnorm_moving_mean", 
      "attrs": {
        "__init__": "[\"zero\", {}]", 
        "fix_gamma": "True"
      }, 
      "inputs": []
    }, 
    {
      "op": "null", 
      "name": "in1B_conv10_7*1_batchnorm_moving_var", 
      "attrs": {
        "__init__": "[\"one\", {}]", 
        "fix_gamma": "True"
      }, 
      "inputs": []
    }, 
    {
      "op": "BatchNorm", 
      "name": "in1B_conv10_7*1_batchnorm", 
      "attrs": {"fix_gamma": "True"}, 
      "inputs": [[435, 0, 0], [436, 0, 0], [437, 0, 0], [438, 0, 1], [439, 0, 1]]
    }, 
    {
      "op": "Activation", 
      "name": "in1B_conv10_7*1_relu", 
      "attrs": {"act_type": "relu"}, 
      "inputs": [[440, 0, 0]]
    }, 
    {
      "op": "Concat", 
      "name": "in1B_concat_1", 
      "attrs": {"num_args": "4"}, 
      "inputs": [[369, 0, 0], [377, 0, 0], [401, 0, 0], [441, 0, 0]]
    }, 
    {
      "op": "Pooling", 
      "name": "in2B_avgpool_1", 
      "attrs": {
        "kernel": "(3, 3)", 
        "pad": "(1, 1)", 
        "pool_type": "avg"
      }, 
      "inputs": [[442, 0, 0]]
    }, 
    {
      "op": "null", 
      "name": "in2B_conv1_1*1_conv2d_weight", 
      "attrs": {
        "kernel": "(1, 1)", 
        "no_bias": "True", 
        "num_filter": "128", 
        "pad": "(0, 0)", 
        "stride": "(1, 1)"
      }, 
      "inputs": []
    }, 
    {
      "op": "Convolution", 
      "name": "in2B_conv1_1*1_conv2d", 
      "attrs": {
        "kernel": "(1, 1)", 
        "no_bias": "True", 
        "num_filter": "128", 
        "pad": "(0, 0)", 
        "stride": "(1, 1)"
      }, 
      "inputs": [[443, 0, 0], [444, 0, 0]]
    }, 
    {
      "op": "null", 
      "name": "in2B_conv1_1*1_batchnorm_gamma", 
      "attrs": {"fix_gamma": "True"}, 
      "inputs": []
    }, 
    {
      "op": "null", 
      "name": "in2B_conv1_1*1_batchnorm_beta", 
      "attrs": {"fix_gamma": "True"}, 
      "inputs": []
    }, 
    {
      "op": "null", 
      "name": "in2B_conv1_1*1_batchnorm_moving_mean", 
      "attrs": {
        "__init__": "[\"zero\", {}]", 
        "fix_gamma": "True"
      }, 
      "inputs": []
    }, 
    {
      "op": "null", 
      "name": "in2B_conv1_1*1_batchnorm_moving_var", 
      "attrs": {
        "__init__": "[\"one\", {}]", 
        "fix_gamma": "True"
      }, 
      "inputs": []
    }, 
    {
      "op": "BatchNorm", 
      "name": "in2B_conv1_1*1_batchnorm", 
      "attrs": {"fix_gamma": "True"}, 
      "inputs": [[445, 0, 0], [446, 0, 0], [447, 0, 0], [448, 0, 1], [449, 0, 1]]
    }, 
    {
      "op": "Activation", 
      "name": "in2B_conv1_1*1_relu", 
      "attrs": {"act_type": "relu"}, 
      "inputs": [[450, 0, 0]]
    }, 
    {
      "op": "null", 
      "name": "in2B_conv2_1*1_conv2d_weight", 
      "attrs": {
        "kernel": "(1, 1)", 
        "no_bias": "True", 
        "num_filter": "384", 
        "pad": "(0, 0)", 
        "stride": "(1, 1)"
      }, 
      "inputs": []
    }, 
    {
      "op": "Convolution", 
      "name": "in2B_conv2_1*1_conv2d", 
      "attrs": {
        "kernel": "(1, 1)", 
        "no_bias": "True", 
        "num_filter": "384", 
        "pad": "(0, 0)", 
        "stride": "(1, 1)"
      }, 
      "inputs": [[442, 0, 0], [452, 0, 0]]
    }, 
    {
      "op": "null", 
      "name": "in2B_conv2_1*1_batchnorm_gamma", 
      "attrs": {"fix_gamma": "True"}, 
      "inputs": []
    }, 
    {
      "op": "null", 
      "name": "in2B_conv2_1*1_batchnorm_beta", 
      "attrs": {"fix_gamma": "True"}, 
      "inputs": []
    }, 
    {
      "op": "null", 
      "name": "in2B_conv2_1*1_batchnorm_moving_mean", 
      "attrs": {
        "__init__": "[\"zero\", {}]", 
        "fix_gamma": "True"
      }, 
      "inputs": []
    }, 
    {
      "op": "null", 
      "name": "in2B_conv2_1*1_batchnorm_moving_var", 
      "attrs": {
        "__init__": "[\"one\", {}]", 
        "fix_gamma": "True"
      }, 
      "inputs": []
    }, 
    {
      "op": "BatchNorm", 
      "name": "in2B_conv2_1*1_batchnorm", 
      "attrs": {"fix_gamma": "True"}, 
      "inputs": [[453, 0, 0], [454, 0, 0], [455, 0, 0], [456, 0, 1], [457, 0, 1]]
    }, 
    {
      "op": "Activation", 
      "name": "in2B_conv2_1*1_relu", 
      "attrs": {"act_type": "relu"}, 
      "inputs": [[458, 0, 0]]
    }, 
    {
      "op": "null", 
      "name": "in2B_conv3_1*1_conv2d_weight", 
      "attrs": {
        "kernel": "(1, 1)", 
        "no_bias": "True", 
        "num_filter": "192", 
        "pad": "(0, 0)", 
        "stride": "(1, 1)"
      }, 
      "inputs": []
    }, 
    {
      "op": "Convolution", 
      "name": "in2B_conv3_1*1_conv2d", 
      "attrs": {
        "kernel": "(1, 1)", 
        "no_bias": "True", 
        "num_filter": "192", 
        "pad": "(0, 0)", 
        "stride": "(1, 1)"
      }, 
      "inputs": [[442, 0, 0], [460, 0, 0]]
    }, 
    {
      "op": "null", 
      "name": "in2B_conv3_1*1_batchnorm_gamma", 
      "attrs": {"fix_gamma": "True"}, 
      "inputs": []
    }, 
    {
      "op": "null", 
      "name": "in2B_conv3_1*1_batchnorm_beta", 
      "attrs": {"fix_gamma": "True"}, 
      "inputs": []
    }, 
    {
      "op": "null", 
      "name": "in2B_conv3_1*1_batchnorm_moving_mean", 
      "attrs": {
        "__init__": "[\"zero\", {}]", 
        "fix_gamma": "True"
      }, 
      "inputs": []
    }, 
    {
      "op": "null", 
      "name": "in2B_conv3_1*1_batchnorm_moving_var", 
      "attrs": {
        "__init__": "[\"one\", {}]", 
        "fix_gamma": "True"
      }, 
      "inputs": []
    }, 
    {
      "op": "BatchNorm", 
      "name": "in2B_conv3_1*1_batchnorm", 
      "attrs": {"fix_gamma": "True"}, 
      "inputs": [[461, 0, 0], [462, 0, 0], [463, 0, 0], [464, 0, 1], [465, 0, 1]]
    }, 
    {
      "op": "Activation", 
      "name": "in2B_conv3_1*1_relu", 
      "attrs": {"act_type": "relu"}, 
      "inputs": [[466, 0, 0]]
    }, 
    {
      "op": "null", 
      "name": "in2B_conv4_1*7_conv2d_weight", 
      "attrs": {
        "kernel": "(1, 7)", 
        "no_bias": "True", 
        "num_filter": "224", 
        "pad": "(0, 3)", 
        "stride": "(1, 1)"
      }, 
      "inputs": []
    }, 
    {
      "op": "Convolution", 
      "name": "in2B_conv4_1*7_conv2d", 
      "attrs": {
        "kernel": "(1, 7)", 
        "no_bias": "True", 
        "num_filter": "224", 
        "pad": "(0, 3)", 
        "stride": "(1, 1)"
      }, 
      "inputs": [[467, 0, 0], [468, 0, 0]]
    }, 
    {
      "op": "null", 
      "name": "in2B_conv4_1*7_batchnorm_gamma", 
      "attrs": {"fix_gamma": "True"}, 
      "inputs": []
    }, 
    {
      "op": "null", 
      "name": "in2B_conv4_1*7_batchnorm_beta", 
      "attrs": {"fix_gamma": "True"}, 
      "inputs": []
    }, 
    {
      "op": "null", 
      "name": "in2B_conv4_1*7_batchnorm_moving_mean", 
      "attrs": {
        "__init__": "[\"zero\", {}]", 
        "fix_gamma": "True"
      }, 
      "inputs": []
    }, 
    {
      "op": "null", 
      "name": "in2B_conv4_1*7_batchnorm_moving_var", 
      "attrs": {
        "__init__": "[\"one\", {}]", 
        "fix_gamma": "True"
      }, 
      "inputs": []
    }, 
    {
      "op": "BatchNorm", 
      "name": "in2B_conv4_1*7_batchnorm", 
      "attrs": {"fix_gamma": "True"}, 
      "inputs": [[469, 0, 0], [470, 0, 0], [471, 0, 0], [472, 0, 1], [473, 0, 1]]
    }, 
    {
      "op": "Activation", 
      "name": "in2B_conv4_1*7_relu", 
      "attrs": {"act_type": "relu"}, 
      "inputs": [[474, 0, 0]]
    }, 
    {
      "op": "null", 
      "name": "in2B_conv5_1*7_conv2d_weight", 
      "attrs": {
        "kernel": "(7, 1)", 
        "no_bias": "True", 
        "num_filter": "256", 
        "pad": "(3, 0)", 
        "stride": "(1, 1)"
      }, 
      "inputs": []
    }, 
    {
      "op": "Convolution", 
      "name": "in2B_conv5_1*7_conv2d", 
      "attrs": {
        "kernel": "(7, 1)", 
        "no_bias": "True", 
        "num_filter": "256", 
        "pad": "(3, 0)", 
        "stride": "(1, 1)"
      }, 
      "inputs": [[475, 0, 0], [476, 0, 0]]
    }, 
    {
      "op": "null", 
      "name": "in2B_conv5_1*7_batchnorm_gamma", 
      "attrs": {"fix_gamma": "True"}, 
      "inputs": []
    }, 
    {
      "op": "null", 
      "name": "in2B_conv5_1*7_batchnorm_beta", 
      "attrs": {"fix_gamma": "True"}, 
      "inputs": []
    }, 
    {
      "op": "null", 
      "name": "in2B_conv5_1*7_batchnorm_moving_mean", 
      "attrs": {
        "__init__": "[\"zero\", {}]", 
        "fix_gamma": "True"
      }, 
      "inputs": []
    }, 
    {
      "op": "null", 
      "name": "in2B_conv5_1*7_batchnorm_moving_var", 
      "attrs": {
        "__init__": "[\"one\", {}]", 
        "fix_gamma": "True"
      }, 
      "inputs": []
    }, 
    {
      "op": "BatchNorm", 
      "name": "in2B_conv5_1*7_batchnorm", 
      "attrs": {"fix_gamma": "True"}, 
      "inputs": [[477, 0, 0], [478, 0, 0], [479, 0, 0], [480, 0, 1], [481, 0, 1]]
    }, 
    {
      "op": "Activation", 
      "name": "in2B_conv5_1*7_relu", 
      "attrs": {"act_type": "relu"}, 
      "inputs": [[482, 0, 0]]
    }, 
    {
      "op": "null", 
      "name": "in2B_conv6_1*1_conv2d_weight", 
      "attrs": {
        "kernel": "(1, 1)", 
        "no_bias": "True", 
        "num_filter": "192", 
        "pad": "(0, 0)", 
        "stride": "(1, 1)"
      }, 
      "inputs": []
    }, 
    {
      "op": "Convolution", 
      "name": "in2B_conv6_1*1_conv2d", 
      "attrs": {
        "kernel": "(1, 1)", 
        "no_bias": "True", 
        "num_filter": "192", 
        "pad": "(0, 0)", 
        "stride": "(1, 1)"
      }, 
      "inputs": [[442, 0, 0], [484, 0, 0]]
    }, 
    {
      "op": "null", 
      "name": "in2B_conv6_1*1_batchnorm_gamma", 
      "attrs": {"fix_gamma": "True"}, 
      "inputs": []
    }, 
    {
      "op": "null", 
      "name": "in2B_conv6_1*1_batchnorm_beta", 
      "attrs": {"fix_gamma": "True"}, 
      "inputs": []
    }, 
    {
      "op": "null", 
      "name": "in2B_conv6_1*1_batchnorm_moving_mean", 
      "attrs": {
        "__init__": "[\"zero\", {}]", 
        "fix_gamma": "True"
      }, 
      "inputs": []
    }, 
    {
      "op": "null", 
      "name": "in2B_conv6_1*1_batchnorm_moving_var", 
      "attrs": {
        "__init__": "[\"one\", {}]", 
        "fix_gamma": "True"
      }, 
      "inputs": []
    }, 
    {
      "op": "BatchNorm", 
      "name": "in2B_conv6_1*1_batchnorm", 
      "attrs": {"fix_gamma": "True"}, 
      "inputs": [[485, 0, 0], [486, 0, 0], [487, 0, 0], [488, 0, 1], [489, 0, 1]]
    }, 
    {
      "op": "Activation", 
      "name": "in2B_conv6_1*1_relu", 
      "attrs": {"act_type": "relu"}, 
      "inputs": [[490, 0, 0]]
    }, 
    {
      "op": "null", 
      "name": "in2B_conv7_1*7_conv2d_weight", 
      "attrs": {
        "kernel": "(1, 7)", 
        "no_bias": "True", 
        "num_filter": "192", 
        "pad": "(0, 3)", 
        "stride": "(1, 1)"
      }, 
      "inputs": []
    }, 
    {
      "op": "Convolution", 
      "name": "in2B_conv7_1*7_conv2d", 
      "attrs": {
        "kernel": "(1, 7)", 
        "no_bias": "True", 
        "num_filter": "192", 
        "pad": "(0, 3)", 
        "stride": "(1, 1)"
      }, 
      "inputs": [[491, 0, 0], [492, 0, 0]]
    }, 
    {
      "op": "null", 
      "name": "in2B_conv7_1*7_batchnorm_gamma", 
      "attrs": {"fix_gamma": "True"}, 
      "inputs": []
    }, 
    {
      "op": "null", 
      "name": "in2B_conv7_1*7_batchnorm_beta", 
      "attrs": {"fix_gamma": "True"}, 
      "inputs": []
    }, 
    {
      "op": "null", 
      "name": "in2B_conv7_1*7_batchnorm_moving_mean", 
      "attrs": {
        "__init__": "[\"zero\", {}]", 
        "fix_gamma": "True"
      }, 
      "inputs": []
    }, 
    {
      "op": "null", 
      "name": "in2B_conv7_1*7_batchnorm_moving_var", 
      "attrs": {
        "__init__": "[\"one\", {}]", 
        "fix_gamma": "True"
      }, 
      "inputs": []
    }, 
    {
      "op": "BatchNorm", 
      "name": "in2B_conv7_1*7_batchnorm", 
      "attrs": {"fix_gamma": "True"}, 
      "inputs": [[493, 0, 0], [494, 0, 0], [495, 0, 0], [496, 0, 1], [497, 0, 1]]
    }, 
    {
      "op": "Activation", 
      "name": "in2B_conv7_1*7_relu", 
      "attrs": {"act_type": "relu"}, 
      "inputs": [[498, 0, 0]]
    }, 
    {
      "op": "null", 
      "name": "in2B_conv8_7*1_conv2d_weight", 
      "attrs": {
        "kernel": "(7, 1)", 
        "no_bias": "True", 
        "num_filter": "224", 
        "pad": "(3, 0)", 
        "stride": "(1, 1)"
      }, 
      "inputs": []
    }, 
    {
      "op": "Convolution", 
      "name": "in2B_conv8_7*1_conv2d", 
      "attrs": {
        "kernel": "(7, 1)", 
        "no_bias": "True", 
        "num_filter": "224", 
        "pad": "(3, 0)", 
        "stride": "(1, 1)"
      }, 
      "inputs": [[499, 0, 0], [500, 0, 0]]
    }, 
    {
      "op": "null", 
      "name": "in2B_conv8_7*1_batchnorm_gamma", 
      "attrs": {"fix_gamma": "True"}, 
      "inputs": []
    }, 
    {
      "op": "null", 
      "name": "in2B_conv8_7*1_batchnorm_beta", 
      "attrs": {"fix_gamma": "True"}, 
      "inputs": []
    }, 
    {
      "op": "null", 
      "name": "in2B_conv8_7*1_batchnorm_moving_mean", 
      "attrs": {
        "__init__": "[\"zero\", {}]", 
        "fix_gamma": "True"
      }, 
      "inputs": []
    }, 
    {
      "op": "null", 
      "name": "in2B_conv8_7*1_batchnorm_moving_var", 
      "attrs": {
        "__init__": "[\"one\", {}]", 
        "fix_gamma": "True"
      }, 
      "inputs": []
    }, 
    {
      "op": "BatchNorm", 
      "name": "in2B_conv8_7*1_batchnorm", 
      "attrs": {"fix_gamma": "True"}, 
      "inputs": [[501, 0, 0], [502, 0, 0], [503, 0, 0], [504, 0, 1], [505, 0, 1]]
    }, 
    {
      "op": "Activation", 
      "name": "in2B_conv8_7*1_relu", 
      "attrs": {"act_type": "relu"}, 
      "inputs": [[506, 0, 0]]
    }, 
    {
      "op": "null", 
      "name": "in2B_conv9_1*7_conv2d_weight", 
      "attrs": {
        "kernel": "(1, 7)", 
        "no_bias": "True", 
        "num_filter": "224", 
        "pad": "(0, 3)", 
        "stride": "(1, 1)"
      }, 
      "inputs": []
    }, 
    {
      "op": "Convolution", 
      "name": "in2B_conv9_1*7_conv2d", 
      "attrs": {
        "kernel": "(1, 7)", 
        "no_bias": "True", 
        "num_filter": "224", 
        "pad": "(0, 3)", 
        "stride": "(1, 1)"
      }, 
      "inputs": [[507, 0, 0], [508, 0, 0]]
    }, 
    {
      "op": "null", 
      "name": "in2B_conv9_1*7_batchnorm_gamma", 
      "attrs": {"fix_gamma": "True"}, 
      "inputs": []
    }, 
    {
      "op": "null", 
      "name": "in2B_conv9_1*7_batchnorm_beta", 
      "attrs": {"fix_gamma": "True"}, 
      "inputs": []
    }, 
    {
      "op": "null", 
      "name": "in2B_conv9_1*7_batchnorm_moving_mean", 
      "attrs": {
        "__init__": "[\"zero\", {}]", 
        "fix_gamma": "True"
      }, 
      "inputs": []
    }, 
    {
      "op": "null", 
      "name": "in2B_conv9_1*7_batchnorm_moving_var", 
      "attrs": {
        "__init__": "[\"one\", {}]", 
        "fix_gamma": "True"
      }, 
      "inputs": []
    }, 
    {
      "op": "BatchNorm", 
      "name": "in2B_conv9_1*7_batchnorm", 
      "attrs": {"fix_gamma": "True"}, 
      "inputs": [[509, 0, 0], [510, 0, 0], [511, 0, 0], [512, 0, 1], [513, 0, 1]]
    }, 
    {
      "op": "Activation", 
      "name": "in2B_conv9_1*7_relu", 
      "attrs": {"act_type": "relu"}, 
      "inputs": [[514, 0, 0]]
    }, 
    {
      "op": "null", 
      "name": "in2B_conv10_7*1_conv2d_weight", 
      "attrs": {
        "kernel": "(7, 1)", 
        "no_bias": "True", 
        "num_filter": "256", 
        "pad": "(3, 0)", 
        "stride": "(1, 1)"
      }, 
      "inputs": []
    }, 
    {
      "op": "Convolution", 
      "name": "in2B_conv10_7*1_conv2d", 
      "attrs": {
        "kernel": "(7, 1)", 
        "no_bias": "True", 
        "num_filter": "256", 
        "pad": "(3, 0)", 
        "stride": "(1, 1)"
      }, 
      "inputs": [[515, 0, 0], [516, 0, 0]]
    }, 
    {
      "op": "null", 
      "name": "in2B_conv10_7*1_batchnorm_gamma", 
      "attrs": {"fix_gamma": "True"}, 
      "inputs": []
    }, 
    {
      "op": "null", 
      "name": "in2B_conv10_7*1_batchnorm_beta", 
      "attrs": {"fix_gamma": "True"}, 
      "inputs": []
    }, 
    {
      "op": "null", 
      "name": "in2B_conv10_7*1_batchnorm_moving_mean", 
      "attrs": {
        "__init__": "[\"zero\", {}]", 
        "fix_gamma": "True"
      }, 
      "inputs": []
    }, 
    {
      "op": "null", 
      "name": "in2B_conv10_7*1_batchnorm_moving_var", 
      "attrs": {
        "__init__": "[\"one\", {}]", 
        "fix_gamma": "True"
      }, 
      "inputs": []
    }, 
    {
      "op": "BatchNorm", 
      "name": "in2B_conv10_7*1_batchnorm", 
      "attrs": {"fix_gamma": "True"}, 
      "inputs": [[517, 0, 0], [518, 0, 0], [519, 0, 0], [520, 0, 1], [521, 0, 1]]
    }, 
    {
      "op": "Activation", 
      "name": "in2B_conv10_7*1_relu", 
      "attrs": {"act_type": "relu"}, 
      "inputs": [[522, 0, 0]]
    }, 
    {
      "op": "Concat", 
      "name": "in2B_concat_1", 
      "attrs": {"num_args": "4"}, 
      "inputs": [[451, 0, 0], [459, 0, 0], [483, 0, 0], [523, 0, 0]]
    }, 
    {
      "op": "Pooling", 
      "name": "in3B_avgpool_1", 
      "attrs": {
        "kernel": "(3, 3)", 
        "pad": "(1, 1)", 
        "pool_type": "avg"
      }, 
      "inputs": [[524, 0, 0]]
    }, 
    {
      "op": "null", 
      "name": "in3B_conv1_1*1_conv2d_weight", 
      "attrs": {
        "kernel": "(1, 1)", 
        "no_bias": "True", 
        "num_filter": "128", 
        "pad": "(0, 0)", 
        "stride": "(1, 1)"
      }, 
      "inputs": []
    }, 
    {
      "op": "Convolution", 
      "name": "in3B_conv1_1*1_conv2d", 
      "attrs": {
        "kernel": "(1, 1)", 
        "no_bias": "True", 
        "num_filter": "128", 
        "pad": "(0, 0)", 
        "stride": "(1, 1)"
      }, 
      "inputs": [[525, 0, 0], [526, 0, 0]]
    }, 
    {
      "op": "null", 
      "name": "in3B_conv1_1*1_batchnorm_gamma", 
      "attrs": {"fix_gamma": "True"}, 
      "inputs": []
    }, 
    {
      "op": "null", 
      "name": "in3B_conv1_1*1_batchnorm_beta", 
      "attrs": {"fix_gamma": "True"}, 
      "inputs": []
    }, 
    {
      "op": "null", 
      "name": "in3B_conv1_1*1_batchnorm_moving_mean", 
      "attrs": {
        "__init__": "[\"zero\", {}]", 
        "fix_gamma": "True"
      }, 
      "inputs": []
    }, 
    {
      "op": "null", 
      "name": "in3B_conv1_1*1_batchnorm_moving_var", 
      "attrs": {
        "__init__": "[\"one\", {}]", 
        "fix_gamma": "True"
      }, 
      "inputs": []
    }, 
    {
      "op": "BatchNorm", 
      "name": "in3B_conv1_1*1_batchnorm", 
      "attrs": {"fix_gamma": "True"}, 
      "inputs": [[527, 0, 0], [528, 0, 0], [529, 0, 0], [530, 0, 1], [531, 0, 1]]
    }, 
    {
      "op": "Activation", 
      "name": "in3B_conv1_1*1_relu", 
      "attrs": {"act_type": "relu"}, 
      "inputs": [[532, 0, 0]]
    }, 
    {
      "op": "null", 
      "name": "in3B_conv2_1*1_conv2d_weight", 
      "attrs": {
        "kernel": "(1, 1)", 
        "no_bias": "True", 
        "num_filter": "384", 
        "pad": "(0, 0)", 
        "stride": "(1, 1)"
      }, 
      "inputs": []
    }, 
    {
      "op": "Convolution", 
      "name": "in3B_conv2_1*1_conv2d", 
      "attrs": {
        "kernel": "(1, 1)", 
        "no_bias": "True", 
        "num_filter": "384", 
        "pad": "(0, 0)", 
        "stride": "(1, 1)"
      }, 
      "inputs": [[524, 0, 0], [534, 0, 0]]
    }, 
    {
      "op": "null", 
      "name": "in3B_conv2_1*1_batchnorm_gamma", 
      "attrs": {"fix_gamma": "True"}, 
      "inputs": []
    }, 
    {
      "op": "null", 
      "name": "in3B_conv2_1*1_batchnorm_beta", 
      "attrs": {"fix_gamma": "True"}, 
      "inputs": []
    }, 
    {
      "op": "null", 
      "name": "in3B_conv2_1*1_batchnorm_moving_mean", 
      "attrs": {
        "__init__": "[\"zero\", {}]", 
        "fix_gamma": "True"
      }, 
      "inputs": []
    }, 
    {
      "op": "null", 
      "name": "in3B_conv2_1*1_batchnorm_moving_var", 
      "attrs": {
        "__init__": "[\"one\", {}]", 
        "fix_gamma": "True"
      }, 
      "inputs": []
    }, 
    {
      "op": "BatchNorm", 
      "name": "in3B_conv2_1*1_batchnorm", 
      "attrs": {"fix_gamma": "True"}, 
      "inputs": [[535, 0, 0], [536, 0, 0], [537, 0, 0], [538, 0, 1], [539, 0, 1]]
    }, 
    {
      "op": "Activation", 
      "name": "in3B_conv2_1*1_relu", 
      "attrs": {"act_type": "relu"}, 
      "inputs": [[540, 0, 0]]
    }, 
    {
      "op": "null", 
      "name": "in3B_conv3_1*1_conv2d_weight", 
      "attrs": {
        "kernel": "(1, 1)", 
        "no_bias": "True", 
        "num_filter": "192", 
        "pad": "(0, 0)", 
        "stride": "(1, 1)"
      }, 
      "inputs": []
    }, 
    {
      "op": "Convolution", 
      "name": "in3B_conv3_1*1_conv2d", 
      "attrs": {
        "kernel": "(1, 1)", 
        "no_bias": "True", 
        "num_filter": "192", 
        "pad": "(0, 0)", 
        "stride": "(1, 1)"
      }, 
      "inputs": [[524, 0, 0], [542, 0, 0]]
    }, 
    {
      "op": "null", 
      "name": "in3B_conv3_1*1_batchnorm_gamma", 
      "attrs": {"fix_gamma": "True"}, 
      "inputs": []
    }, 
    {
      "op": "null", 
      "name": "in3B_conv3_1*1_batchnorm_beta", 
      "attrs": {"fix_gamma": "True"}, 
      "inputs": []
    }, 
    {
      "op": "null", 
      "name": "in3B_conv3_1*1_batchnorm_moving_mean", 
      "attrs": {
        "__init__": "[\"zero\", {}]", 
        "fix_gamma": "True"
      }, 
      "inputs": []
    }, 
    {
      "op": "null", 
      "name": "in3B_conv3_1*1_batchnorm_moving_var", 
      "attrs": {
        "__init__": "[\"one\", {}]", 
        "fix_gamma": "True"
      }, 
      "inputs": []
    }, 
    {
      "op": "BatchNorm", 
      "name": "in3B_conv3_1*1_batchnorm", 
      "attrs": {"fix_gamma": "True"}, 
      "inputs": [[543, 0, 0], [544, 0, 0], [545, 0, 0], [546, 0, 1], [547, 0, 1]]
    }, 
    {
      "op": "Activation", 
      "name": "in3B_conv3_1*1_relu", 
      "attrs": {"act_type": "relu"}, 
      "inputs": [[548, 0, 0]]
    }, 
    {
      "op": "null", 
      "name": "in3B_conv4_1*7_conv2d_weight", 
      "attrs": {
        "kernel": "(1, 7)", 
        "no_bias": "True", 
        "num_filter": "224", 
        "pad": "(0, 3)", 
        "stride": "(1, 1)"
      }, 
      "inputs": []
    }, 
    {
      "op": "Convolution", 
      "name": "in3B_conv4_1*7_conv2d", 
      "attrs": {
        "kernel": "(1, 7)", 
        "no_bias": "True", 
        "num_filter": "224", 
        "pad": "(0, 3)", 
        "stride": "(1, 1)"
      }, 
      "inputs": [[549, 0, 0], [550, 0, 0]]
    }, 
    {
      "op": "null", 
      "name": "in3B_conv4_1*7_batchnorm_gamma", 
      "attrs": {"fix_gamma": "True"}, 
      "inputs": []
    }, 
    {
      "op": "null", 
      "name": "in3B_conv4_1*7_batchnorm_beta", 
      "attrs": {"fix_gamma": "True"}, 
      "inputs": []
    }, 
    {
      "op": "null", 
      "name": "in3B_conv4_1*7_batchnorm_moving_mean", 
      "attrs": {
        "__init__": "[\"zero\", {}]", 
        "fix_gamma": "True"
      }, 
      "inputs": []
    }, 
    {
      "op": "null", 
      "name": "in3B_conv4_1*7_batchnorm_moving_var", 
      "attrs": {
        "__init__": "[\"one\", {}]", 
        "fix_gamma": "True"
      }, 
      "inputs": []
    }, 
    {
      "op": "BatchNorm", 
      "name": "in3B_conv4_1*7_batchnorm", 
      "attrs": {"fix_gamma": "True"}, 
      "inputs": [[551, 0, 0], [552, 0, 0], [553, 0, 0], [554, 0, 1], [555, 0, 1]]
    }, 
    {
      "op": "Activation", 
      "name": "in3B_conv4_1*7_relu", 
      "attrs": {"act_type": "relu"}, 
      "inputs": [[556, 0, 0]]
    }, 
    {
      "op": "null", 
      "name": "in3B_conv5_1*7_conv2d_weight", 
      "attrs": {
        "kernel": "(7, 1)", 
        "no_bias": "True", 
        "num_filter": "256", 
        "pad": "(3, 0)", 
        "stride": "(1, 1)"
      }, 
      "inputs": []
    }, 
    {
      "op": "Convolution", 
      "name": "in3B_conv5_1*7_conv2d", 
      "attrs": {
        "kernel": "(7, 1)", 
        "no_bias": "True", 
        "num_filter": "256", 
        "pad": "(3, 0)", 
        "stride": "(1, 1)"
      }, 
      "inputs": [[557, 0, 0], [558, 0, 0]]
    }, 
    {
      "op": "null", 
      "name": "in3B_conv5_1*7_batchnorm_gamma", 
      "attrs": {"fix_gamma": "True"}, 
      "inputs": []
    }, 
    {
      "op": "null", 
      "name": "in3B_conv5_1*7_batchnorm_beta", 
      "attrs": {"fix_gamma": "True"}, 
      "inputs": []
    }, 
    {
      "op": "null", 
      "name": "in3B_conv5_1*7_batchnorm_moving_mean", 
      "attrs": {
        "__init__": "[\"zero\", {}]", 
        "fix_gamma": "True"
      }, 
      "inputs": []
    }, 
    {
      "op": "null", 
      "name": "in3B_conv5_1*7_batchnorm_moving_var", 
      "attrs": {
        "__init__": "[\"one\", {}]", 
        "fix_gamma": "True"
      }, 
      "inputs": []
    }, 
    {
      "op": "BatchNorm", 
      "name": "in3B_conv5_1*7_batchnorm", 
      "attrs": {"fix_gamma": "True"}, 
      "inputs": [[559, 0, 0], [560, 0, 0], [561, 0, 0], [562, 0, 1], [563, 0, 1]]
    }, 
    {
      "op": "Activation", 
      "name": "in3B_conv5_1*7_relu", 
      "attrs": {"act_type": "relu"}, 
      "inputs": [[564, 0, 0]]
    }, 
    {
      "op": "null", 
      "name": "in3B_conv6_1*1_conv2d_weight", 
      "attrs": {
        "kernel": "(1, 1)", 
        "no_bias": "True", 
        "num_filter": "192", 
        "pad": "(0, 0)", 
        "stride": "(1, 1)"
      }, 
      "inputs": []
    }, 
    {
      "op": "Convolution", 
      "name": "in3B_conv6_1*1_conv2d", 
      "attrs": {
        "kernel": "(1, 1)", 
        "no_bias": "True", 
        "num_filter": "192", 
        "pad": "(0, 0)", 
        "stride": "(1, 1)"
      }, 
      "inputs": [[524, 0, 0], [566, 0, 0]]
    }, 
    {
      "op": "null", 
      "name": "in3B_conv6_1*1_batchnorm_gamma", 
      "attrs": {"fix_gamma": "True"}, 
      "inputs": []
    }, 
    {
      "op": "null", 
      "name": "in3B_conv6_1*1_batchnorm_beta", 
      "attrs": {"fix_gamma": "True"}, 
      "inputs": []
    }, 
    {
      "op": "null", 
      "name": "in3B_conv6_1*1_batchnorm_moving_mean", 
      "attrs": {
        "__init__": "[\"zero\", {}]", 
        "fix_gamma": "True"
      }, 
      "inputs": []
    }, 
    {
      "op": "null", 
      "name": "in3B_conv6_1*1_batchnorm_moving_var", 
      "attrs": {
        "__init__": "[\"one\", {}]", 
        "fix_gamma": "True"
      }, 
      "inputs": []
    }, 
    {
      "op": "BatchNorm", 
      "name": "in3B_conv6_1*1_batchnorm", 
      "attrs": {"fix_gamma": "True"}, 
      "inputs": [[567, 0, 0], [568, 0, 0], [569, 0, 0], [570, 0, 1], [571, 0, 1]]
    }, 
    {
      "op": "Activation", 
      "name": "in3B_conv6_1*1_relu", 
      "attrs": {"act_type": "relu"}, 
      "inputs": [[572, 0, 0]]
    }, 
    {
      "op": "null", 
      "name": "in3B_conv7_1*7_conv2d_weight", 
      "attrs": {
        "kernel": "(1, 7)", 
        "no_bias": "True", 
        "num_filter": "192", 
        "pad": "(0, 3)", 
        "stride": "(1, 1)"
      }, 
      "inputs": []
    }, 
    {
      "op": "Convolution", 
      "name": "in3B_conv7_1*7_conv2d", 
      "attrs": {
        "kernel": "(1, 7)", 
        "no_bias": "True", 
        "num_filter": "192", 
        "pad": "(0, 3)", 
        "stride": "(1, 1)"
      }, 
      "inputs": [[573, 0, 0], [574, 0, 0]]
    }, 
    {
      "op": "null", 
      "name": "in3B_conv7_1*7_batchnorm_gamma", 
      "attrs": {"fix_gamma": "True"}, 
      "inputs": []
    }, 
    {
      "op": "null", 
      "name": "in3B_conv7_1*7_batchnorm_beta", 
      "attrs": {"fix_gamma": "True"}, 
      "inputs": []
    }, 
    {
      "op": "null", 
      "name": "in3B_conv7_1*7_batchnorm_moving_mean", 
      "attrs": {
        "__init__": "[\"zero\", {}]", 
        "fix_gamma": "True"
      }, 
      "inputs": []
    }, 
    {
      "op": "null", 
      "name": "in3B_conv7_1*7_batchnorm_moving_var", 
      "attrs": {
        "__init__": "[\"one\", {}]", 
        "fix_gamma": "True"
      }, 
      "inputs": []
    }, 
    {
      "op": "BatchNorm", 
      "name": "in3B_conv7_1*7_batchnorm", 
      "attrs": {"fix_gamma": "True"}, 
      "inputs": [[575, 0, 0], [576, 0, 0], [577, 0, 0], [578, 0, 1], [579, 0, 1]]
    }, 
    {
      "op": "Activation", 
      "name": "in3B_conv7_1*7_relu", 
      "attrs": {"act_type": "relu"}, 
      "inputs": [[580, 0, 0]]
    }, 
    {
      "op": "null", 
      "name": "in3B_conv8_7*1_conv2d_weight", 
      "attrs": {
        "kernel": "(7, 1)", 
        "no_bias": "True", 
        "num_filter": "224", 
        "pad": "(3, 0)", 
        "stride": "(1, 1)"
      }, 
      "inputs": []
    }, 
    {
      "op": "Convolution", 
      "name": "in3B_conv8_7*1_conv2d", 
      "attrs": {
        "kernel": "(7, 1)", 
        "no_bias": "True", 
        "num_filter": "224", 
        "pad": "(3, 0)", 
        "stride": "(1, 1)"
      }, 
      "inputs": [[581, 0, 0], [582, 0, 0]]
    }, 
    {
      "op": "null", 
      "name": "in3B_conv8_7*1_batchnorm_gamma", 
      "attrs": {"fix_gamma": "True"}, 
      "inputs": []
    }, 
    {
      "op": "null", 
      "name": "in3B_conv8_7*1_batchnorm_beta", 
      "attrs": {"fix_gamma": "True"}, 
      "inputs": []
    }, 
    {
      "op": "null", 
      "name": "in3B_conv8_7*1_batchnorm_moving_mean", 
      "attrs": {
        "__init__": "[\"zero\", {}]", 
        "fix_gamma": "True"
      }, 
      "inputs": []
    }, 
    {
      "op": "null", 
      "name": "in3B_conv8_7*1_batchnorm_moving_var", 
      "attrs": {
        "__init__": "[\"one\", {}]", 
        "fix_gamma": "True"
      }, 
      "inputs": []
    }, 
    {
      "op": "BatchNorm", 
      "name": "in3B_conv8_7*1_batchnorm", 
      "attrs": {"fix_gamma": "True"}, 
      "inputs": [[583, 0, 0], [584, 0, 0], [585, 0, 0], [586, 0, 1], [587, 0, 1]]
    }, 
    {
      "op": "Activation", 
      "name": "in3B_conv8_7*1_relu", 
      "attrs": {"act_type": "relu"}, 
      "inputs": [[588, 0, 0]]
    }, 
    {
      "op": "null", 
      "name": "in3B_conv9_1*7_conv2d_weight", 
      "attrs": {
        "kernel": "(1, 7)", 
        "no_bias": "True", 
        "num_filter": "224", 
        "pad": "(0, 3)", 
        "stride": "(1, 1)"
      }, 
      "inputs": []
    }, 
    {
      "op": "Convolution", 
      "name": "in3B_conv9_1*7_conv2d", 
      "attrs": {
        "kernel": "(1, 7)", 
        "no_bias": "True", 
        "num_filter": "224", 
        "pad": "(0, 3)", 
        "stride": "(1, 1)"
      }, 
      "inputs": [[589, 0, 0], [590, 0, 0]]
    }, 
    {
      "op": "null", 
      "name": "in3B_conv9_1*7_batchnorm_gamma", 
      "attrs": {"fix_gamma": "True"}, 
      "inputs": []
    }, 
    {
      "op": "null", 
      "name": "in3B_conv9_1*7_batchnorm_beta", 
      "attrs": {"fix_gamma": "True"}, 
      "inputs": []
    }, 
    {
      "op": "null", 
      "name": "in3B_conv9_1*7_batchnorm_moving_mean", 
      "attrs": {
        "__init__": "[\"zero\", {}]", 
        "fix_gamma": "True"
      }, 
      "inputs": []
    }, 
    {
      "op": "null", 
      "name": "in3B_conv9_1*7_batchnorm_moving_var", 
      "attrs": {
        "__init__": "[\"one\", {}]", 
        "fix_gamma": "True"
      }, 
      "inputs": []
    }, 
    {
      "op": "BatchNorm", 
      "name": "in3B_conv9_1*7_batchnorm", 
      "attrs": {"fix_gamma": "True"}, 
      "inputs": [[591, 0, 0], [592, 0, 0], [593, 0, 0], [594, 0, 1], [595, 0, 1]]
    }, 
    {
      "op": "Activation", 
      "name": "in3B_conv9_1*7_relu", 
      "attrs": {"act_type": "relu"}, 
      "inputs": [[596, 0, 0]]
    }, 
    {
      "op": "null", 
      "name": "in3B_conv10_7*1_conv2d_weight", 
      "attrs": {
        "kernel": "(7, 1)", 
        "no_bias": "True", 
        "num_filter": "256", 
        "pad": "(3, 0)", 
        "stride": "(1, 1)"
      }, 
      "inputs": []
    }, 
    {
      "op": "Convolution", 
      "name": "in3B_conv10_7*1_conv2d", 
      "attrs": {
        "kernel": "(7, 1)", 
        "no_bias": "True", 
        "num_filter": "256", 
        "pad": "(3, 0)", 
        "stride": "(1, 1)"
      }, 
      "inputs": [[597, 0, 0], [598, 0, 0]]
    }, 
    {
      "op": "null", 
      "name": "in3B_conv10_7*1_batchnorm_gamma", 
      "attrs": {"fix_gamma": "True"}, 
      "inputs": []
    }, 
    {
      "op": "null", 
      "name": "in3B_conv10_7*1_batchnorm_beta", 
      "attrs": {"fix_gamma": "True"}, 
      "inputs": []
    }, 
    {
      "op": "null", 
      "name": "in3B_conv10_7*1_batchnorm_moving_mean", 
      "attrs": {
        "__init__": "[\"zero\", {}]", 
        "fix_gamma": "True"
      }, 
      "inputs": []
    }, 
    {
      "op": "null", 
      "name": "in3B_conv10_7*1_batchnorm_moving_var", 
      "attrs": {
        "__init__": "[\"one\", {}]", 
        "fix_gamma": "True"
      }, 
      "inputs": []
    }, 
    {
      "op": "BatchNorm", 
      "name": "in3B_conv10_7*1_batchnorm", 
      "attrs": {"fix_gamma": "True"}, 
      "inputs": [[599, 0, 0], [600, 0, 0], [601, 0, 0], [602, 0, 1], [603, 0, 1]]
    }, 
    {
      "op": "Activation", 
      "name": "in3B_conv10_7*1_relu", 
      "attrs": {"act_type": "relu"}, 
      "inputs": [[604, 0, 0]]
    }, 
    {
      "op": "Concat", 
      "name": "in3B_concat_1", 
      "attrs": {"num_args": "4"}, 
      "inputs": [[533, 0, 0], [541, 0, 0], [565, 0, 0], [605, 0, 0]]
    }, 
    {
      "op": "Pooling", 
      "name": "in4B_avgpool_1", 
      "attrs": {
        "kernel": "(3, 3)", 
        "pad": "(1, 1)", 
        "pool_type": "avg"
      }, 
      "inputs": [[606, 0, 0]]
    }, 
    {
      "op": "null", 
      "name": "in4B_conv1_1*1_conv2d_weight", 
      "attrs": {
        "kernel": "(1, 1)", 
        "no_bias": "True", 
        "num_filter": "128", 
        "pad": "(0, 0)", 
        "stride": "(1, 1)"
      }, 
      "inputs": []
    }, 
    {
      "op": "Convolution", 
      "name": "in4B_conv1_1*1_conv2d", 
      "attrs": {
        "kernel": "(1, 1)", 
        "no_bias": "True", 
        "num_filter": "128", 
        "pad": "(0, 0)", 
        "stride": "(1, 1)"
      }, 
      "inputs": [[607, 0, 0], [608, 0, 0]]
    }, 
    {
      "op": "null", 
      "name": "in4B_conv1_1*1_batchnorm_gamma", 
      "attrs": {"fix_gamma": "True"}, 
      "inputs": []
    }, 
    {
      "op": "null", 
      "name": "in4B_conv1_1*1_batchnorm_beta", 
      "attrs": {"fix_gamma": "True"}, 
      "inputs": []
    }, 
    {
      "op": "null", 
      "name": "in4B_conv1_1*1_batchnorm_moving_mean", 
      "attrs": {
        "__init__": "[\"zero\", {}]", 
        "fix_gamma": "True"
      }, 
      "inputs": []
    }, 
    {
      "op": "null", 
      "name": "in4B_conv1_1*1_batchnorm_moving_var", 
      "attrs": {
        "__init__": "[\"one\", {}]", 
        "fix_gamma": "True"
      }, 
      "inputs": []
    }, 
    {
      "op": "BatchNorm", 
      "name": "in4B_conv1_1*1_batchnorm", 
      "attrs": {"fix_gamma": "True"}, 
      "inputs": [[609, 0, 0], [610, 0, 0], [611, 0, 0], [612, 0, 1], [613, 0, 1]]
    }, 
    {
      "op": "Activation", 
      "name": "in4B_conv1_1*1_relu", 
      "attrs": {"act_type": "relu"}, 
      "inputs": [[614, 0, 0]]
    }, 
    {
      "op": "null", 
      "name": "in4B_conv2_1*1_conv2d_weight", 
      "attrs": {
        "kernel": "(1, 1)", 
        "no_bias": "True", 
        "num_filter": "384", 
        "pad": "(0, 0)", 
        "stride": "(1, 1)"
      }, 
      "inputs": []
    }, 
    {
      "op": "Convolution", 
      "name": "in4B_conv2_1*1_conv2d", 
      "attrs": {
        "kernel": "(1, 1)", 
        "no_bias": "True", 
        "num_filter": "384", 
        "pad": "(0, 0)", 
        "stride": "(1, 1)"
      }, 
      "inputs": [[606, 0, 0], [616, 0, 0]]
    }, 
    {
      "op": "null", 
      "name": "in4B_conv2_1*1_batchnorm_gamma", 
      "attrs": {"fix_gamma": "True"}, 
      "inputs": []
    }, 
    {
      "op": "null", 
      "name": "in4B_conv2_1*1_batchnorm_beta", 
      "attrs": {"fix_gamma": "True"}, 
      "inputs": []
    }, 
    {
      "op": "null", 
      "name": "in4B_conv2_1*1_batchnorm_moving_mean", 
      "attrs": {
        "__init__": "[\"zero\", {}]", 
        "fix_gamma": "True"
      }, 
      "inputs": []
    }, 
    {
      "op": "null", 
      "name": "in4B_conv2_1*1_batchnorm_moving_var", 
      "attrs": {
        "__init__": "[\"one\", {}]", 
        "fix_gamma": "True"
      }, 
      "inputs": []
    }, 
    {
      "op": "BatchNorm", 
      "name": "in4B_conv2_1*1_batchnorm", 
      "attrs": {"fix_gamma": "True"}, 
      "inputs": [[617, 0, 0], [618, 0, 0], [619, 0, 0], [620, 0, 1], [621, 0, 1]]
    }, 
    {
      "op": "Activation", 
      "name": "in4B_conv2_1*1_relu", 
      "attrs": {"act_type": "relu"}, 
      "inputs": [[622, 0, 0]]
    }, 
    {
      "op": "null", 
      "name": "in4B_conv3_1*1_conv2d_weight", 
      "attrs": {
        "kernel": "(1, 1)", 
        "no_bias": "True", 
        "num_filter": "192", 
        "pad": "(0, 0)", 
        "stride": "(1, 1)"
      }, 
      "inputs": []
    }, 
    {
      "op": "Convolution", 
      "name": "in4B_conv3_1*1_conv2d", 
      "attrs": {
        "kernel": "(1, 1)", 
        "no_bias": "True", 
        "num_filter": "192", 
        "pad": "(0, 0)", 
        "stride": "(1, 1)"
      }, 
      "inputs": [[606, 0, 0], [624, 0, 0]]
    }, 
    {
      "op": "null", 
      "name": "in4B_conv3_1*1_batchnorm_gamma", 
      "attrs": {"fix_gamma": "True"}, 
      "inputs": []
    }, 
    {
      "op": "null", 
      "name": "in4B_conv3_1*1_batchnorm_beta", 
      "attrs": {"fix_gamma": "True"}, 
      "inputs": []
    }, 
    {
      "op": "null", 
      "name": "in4B_conv3_1*1_batchnorm_moving_mean", 
      "attrs": {
        "__init__": "[\"zero\", {}]", 
        "fix_gamma": "True"
      }, 
      "inputs": []
    }, 
    {
      "op": "null", 
      "name": "in4B_conv3_1*1_batchnorm_moving_var", 
      "attrs": {
        "__init__": "[\"one\", {}]", 
        "fix_gamma": "True"
      }, 
      "inputs": []
    }, 
    {
      "op": "BatchNorm", 
      "name": "in4B_conv3_1*1_batchnorm", 
      "attrs": {"fix_gamma": "True"}, 
      "inputs": [[625, 0, 0], [626, 0, 0], [627, 0, 0], [628, 0, 1], [629, 0, 1]]
    }, 
    {
      "op": "Activation", 
      "name": "in4B_conv3_1*1_relu", 
      "attrs": {"act_type": "relu"}, 
      "inputs": [[630, 0, 0]]
    }, 
    {
      "op": "null", 
      "name": "in4B_conv4_1*7_conv2d_weight", 
      "attrs": {
        "kernel": "(1, 7)", 
        "no_bias": "True", 
        "num_filter": "224", 
        "pad": "(0, 3)", 
        "stride": "(1, 1)"
      }, 
      "inputs": []
    }, 
    {
      "op": "Convolution", 
      "name": "in4B_conv4_1*7_conv2d", 
      "attrs": {
        "kernel": "(1, 7)", 
        "no_bias": "True", 
        "num_filter": "224", 
        "pad": "(0, 3)", 
        "stride": "(1, 1)"
      }, 
      "inputs": [[631, 0, 0], [632, 0, 0]]
    }, 
    {
      "op": "null", 
      "name": "in4B_conv4_1*7_batchnorm_gamma", 
      "attrs": {"fix_gamma": "True"}, 
      "inputs": []
    }, 
    {
      "op": "null", 
      "name": "in4B_conv4_1*7_batchnorm_beta", 
      "attrs": {"fix_gamma": "True"}, 
      "inputs": []
    }, 
    {
      "op": "null", 
      "name": "in4B_conv4_1*7_batchnorm_moving_mean", 
      "attrs": {
        "__init__": "[\"zero\", {}]", 
        "fix_gamma": "True"
      }, 
      "inputs": []
    }, 
    {
      "op": "null", 
      "name": "in4B_conv4_1*7_batchnorm_moving_var", 
      "attrs": {
        "__init__": "[\"one\", {}]", 
        "fix_gamma": "True"
      }, 
      "inputs": []
    }, 
    {
      "op": "BatchNorm", 
      "name": "in4B_conv4_1*7_batchnorm", 
      "attrs": {"fix_gamma": "True"}, 
      "inputs": [[633, 0, 0], [634, 0, 0], [635, 0, 0], [636, 0, 1], [637, 0, 1]]
    }, 
    {
      "op": "Activation", 
      "name": "in4B_conv4_1*7_relu", 
      "attrs": {"act_type": "relu"}, 
      "inputs": [[638, 0, 0]]
    }, 
    {
      "op": "null", 
      "name": "in4B_conv5_1*7_conv2d_weight", 
      "attrs": {
        "kernel": "(7, 1)", 
        "no_bias": "True", 
        "num_filter": "256", 
        "pad": "(3, 0)", 
        "stride": "(1, 1)"
      }, 
      "inputs": []
    }, 
    {
      "op": "Convolution", 
      "name": "in4B_conv5_1*7_conv2d", 
      "attrs": {
        "kernel": "(7, 1)", 
        "no_bias": "True", 
        "num_filter": "256", 
        "pad": "(3, 0)", 
        "stride": "(1, 1)"
      }, 
      "inputs": [[639, 0, 0], [640, 0, 0]]
    }, 
    {
      "op": "null", 
      "name": "in4B_conv5_1*7_batchnorm_gamma", 
      "attrs": {"fix_gamma": "True"}, 
      "inputs": []
    }, 
    {
      "op": "null", 
      "name": "in4B_conv5_1*7_batchnorm_beta", 
      "attrs": {"fix_gamma": "True"}, 
      "inputs": []
    }, 
    {
      "op": "null", 
      "name": "in4B_conv5_1*7_batchnorm_moving_mean", 
      "attrs": {
        "__init__": "[\"zero\", {}]", 
        "fix_gamma": "True"
      }, 
      "inputs": []
    }, 
    {
      "op": "null", 
      "name": "in4B_conv5_1*7_batchnorm_moving_var", 
      "attrs": {
        "__init__": "[\"one\", {}]", 
        "fix_gamma": "True"
      }, 
      "inputs": []
    }, 
    {
      "op": "BatchNorm", 
      "name": "in4B_conv5_1*7_batchnorm", 
      "attrs": {"fix_gamma": "True"}, 
      "inputs": [[641, 0, 0], [642, 0, 0], [643, 0, 0], [644, 0, 1], [645, 0, 1]]
    }, 
    {
      "op": "Activation", 
      "name": "in4B_conv5_1*7_relu", 
      "attrs": {"act_type": "relu"}, 
      "inputs": [[646, 0, 0]]
    }, 
    {
      "op": "null", 
      "name": "in4B_conv6_1*1_conv2d_weight", 
      "attrs": {
        "kernel": "(1, 1)", 
        "no_bias": "True", 
        "num_filter": "192", 
        "pad": "(0, 0)", 
        "stride": "(1, 1)"
      }, 
      "inputs": []
    }, 
    {
      "op": "Convolution", 
      "name": "in4B_conv6_1*1_conv2d", 
      "attrs": {
        "kernel": "(1, 1)", 
        "no_bias": "True", 
        "num_filter": "192", 
        "pad": "(0, 0)", 
        "stride": "(1, 1)"
      }, 
      "inputs": [[606, 0, 0], [648, 0, 0]]
    }, 
    {
      "op": "null", 
      "name": "in4B_conv6_1*1_batchnorm_gamma", 
      "attrs": {"fix_gamma": "True"}, 
      "inputs": []
    }, 
    {
      "op": "null", 
      "name": "in4B_conv6_1*1_batchnorm_beta", 
      "attrs": {"fix_gamma": "True"}, 
      "inputs": []
    }, 
    {
      "op": "null", 
      "name": "in4B_conv6_1*1_batchnorm_moving_mean", 
      "attrs": {
        "__init__": "[\"zero\", {}]", 
        "fix_gamma": "True"
      }, 
      "inputs": []
    }, 
    {
      "op": "null", 
      "name": "in4B_conv6_1*1_batchnorm_moving_var", 
      "attrs": {
        "__init__": "[\"one\", {}]", 
        "fix_gamma": "True"
      }, 
      "inputs": []
    }, 
    {
      "op": "BatchNorm", 
      "name": "in4B_conv6_1*1_batchnorm", 
      "attrs": {"fix_gamma": "True"}, 
      "inputs": [[649, 0, 0], [650, 0, 0], [651, 0, 0], [652, 0, 1], [653, 0, 1]]
    }, 
    {
      "op": "Activation", 
      "name": "in4B_conv6_1*1_relu", 
      "attrs": {"act_type": "relu"}, 
      "inputs": [[654, 0, 0]]
    }, 
    {
      "op": "null", 
      "name": "in4B_conv7_1*7_conv2d_weight", 
      "attrs": {
        "kernel": "(1, 7)", 
        "no_bias": "True", 
        "num_filter": "192", 
        "pad": "(0, 3)", 
        "stride": "(1, 1)"
      }, 
      "inputs": []
    }, 
    {
      "op": "Convolution", 
      "name": "in4B_conv7_1*7_conv2d", 
      "attrs": {
        "kernel": "(1, 7)", 
        "no_bias": "True", 
        "num_filter": "192", 
        "pad": "(0, 3)", 
        "stride": "(1, 1)"
      }, 
      "inputs": [[655, 0, 0], [656, 0, 0]]
    }, 
    {
      "op": "null", 
      "name": "in4B_conv7_1*7_batchnorm_gamma", 
      "attrs": {"fix_gamma": "True"}, 
      "inputs": []
    }, 
    {
      "op": "null", 
      "name": "in4B_conv7_1*7_batchnorm_beta", 
      "attrs": {"fix_gamma": "True"}, 
      "inputs": []
    }, 
    {
      "op": "null", 
      "name": "in4B_conv7_1*7_batchnorm_moving_mean", 
      "attrs": {
        "__init__": "[\"zero\", {}]", 
        "fix_gamma": "True"
      }, 
      "inputs": []
    }, 
    {
      "op": "null", 
      "name": "in4B_conv7_1*7_batchnorm_moving_var", 
      "attrs": {
        "__init__": "[\"one\", {}]", 
        "fix_gamma": "True"
      }, 
      "inputs": []
    }, 
    {
      "op": "BatchNorm", 
      "name": "in4B_conv7_1*7_batchnorm", 
      "attrs": {"fix_gamma": "True"}, 
      "inputs": [[657, 0, 0], [658, 0, 0], [659, 0, 0], [660, 0, 1], [661, 0, 1]]
    }, 
    {
      "op": "Activation", 
      "name": "in4B_conv7_1*7_relu", 
      "attrs": {"act_type": "relu"}, 
      "inputs": [[662, 0, 0]]
    }, 
    {
      "op": "null", 
      "name": "in4B_conv8_7*1_conv2d_weight", 
      "attrs": {
        "kernel": "(7, 1)", 
        "no_bias": "True", 
        "num_filter": "224", 
        "pad": "(3, 0)", 
        "stride": "(1, 1)"
      }, 
      "inputs": []
    }, 
    {
      "op": "Convolution", 
      "name": "in4B_conv8_7*1_conv2d", 
      "attrs": {
        "kernel": "(7, 1)", 
        "no_bias": "True", 
        "num_filter": "224", 
        "pad": "(3, 0)", 
        "stride": "(1, 1)"
      }, 
      "inputs": [[663, 0, 0], [664, 0, 0]]
    }, 
    {
      "op": "null", 
      "name": "in4B_conv8_7*1_batchnorm_gamma", 
      "attrs": {"fix_gamma": "True"}, 
      "inputs": []
    }, 
    {
      "op": "null", 
      "name": "in4B_conv8_7*1_batchnorm_beta", 
      "attrs": {"fix_gamma": "True"}, 
      "inputs": []
    }, 
    {
      "op": "null", 
      "name": "in4B_conv8_7*1_batchnorm_moving_mean", 
      "attrs": {
        "__init__": "[\"zero\", {}]", 
        "fix_gamma": "True"
      }, 
      "inputs": []
    }, 
    {
      "op": "null", 
      "name": "in4B_conv8_7*1_batchnorm_moving_var", 
      "attrs": {
        "__init__": "[\"one\", {}]", 
        "fix_gamma": "True"
      }, 
      "inputs": []
    }, 
    {
      "op": "BatchNorm", 
      "name": "in4B_conv8_7*1_batchnorm", 
      "attrs": {"fix_gamma": "True"}, 
      "inputs": [[665, 0, 0], [666, 0, 0], [667, 0, 0], [668, 0, 1], [669, 0, 1]]
    }, 
    {
      "op": "Activation", 
      "name": "in4B_conv8_7*1_relu", 
      "attrs": {"act_type": "relu"}, 
      "inputs": [[670, 0, 0]]
    }, 
    {
      "op": "null", 
      "name": "in4B_conv9_1*7_conv2d_weight", 
      "attrs": {
        "kernel": "(1, 7)", 
        "no_bias": "True", 
        "num_filter": "224", 
        "pad": "(0, 3)", 
        "stride": "(1, 1)"
      }, 
      "inputs": []
    }, 
    {
      "op": "Convolution", 
      "name": "in4B_conv9_1*7_conv2d", 
      "attrs": {
        "kernel": "(1, 7)", 
        "no_bias": "True", 
        "num_filter": "224", 
        "pad": "(0, 3)", 
        "stride": "(1, 1)"
      }, 
      "inputs": [[671, 0, 0], [672, 0, 0]]
    }, 
    {
      "op": "null", 
      "name": "in4B_conv9_1*7_batchnorm_gamma", 
      "attrs": {"fix_gamma": "True"}, 
      "inputs": []
    }, 
    {
      "op": "null", 
      "name": "in4B_conv9_1*7_batchnorm_beta", 
      "attrs": {"fix_gamma": "True"}, 
      "inputs": []
    }, 
    {
      "op": "null", 
      "name": "in4B_conv9_1*7_batchnorm_moving_mean", 
      "attrs": {
        "__init__": "[\"zero\", {}]", 
        "fix_gamma": "True"
      }, 
      "inputs": []
    }, 
    {
      "op": "null", 
      "name": "in4B_conv9_1*7_batchnorm_moving_var", 
      "attrs": {
        "__init__": "[\"one\", {}]", 
        "fix_gamma": "True"
      }, 
      "inputs": []
    }, 
    {
      "op": "BatchNorm", 
      "name": "in4B_conv9_1*7_batchnorm", 
      "attrs": {"fix_gamma": "True"}, 
      "inputs": [[673, 0, 0], [674, 0, 0], [675, 0, 0], [676, 0, 1], [677, 0, 1]]
    }, 
    {
      "op": "Activation", 
      "name": "in4B_conv9_1*7_relu", 
      "attrs": {"act_type": "relu"}, 
      "inputs": [[678, 0, 0]]
    }, 
    {
      "op": "null", 
      "name": "in4B_conv10_7*1_conv2d_weight", 
      "attrs": {
        "kernel": "(7, 1)", 
        "no_bias": "True", 
        "num_filter": "256", 
        "pad": "(3, 0)", 
        "stride": "(1, 1)"
      }, 
      "inputs": []
    }, 
    {
      "op": "Convolution", 
      "name": "in4B_conv10_7*1_conv2d", 
      "attrs": {
        "kernel": "(7, 1)", 
        "no_bias": "True", 
        "num_filter": "256", 
        "pad": "(3, 0)", 
        "stride": "(1, 1)"
      }, 
      "inputs": [[679, 0, 0], [680, 0, 0]]
    }, 
    {
      "op": "null", 
      "name": "in4B_conv10_7*1_batchnorm_gamma", 
      "attrs": {"fix_gamma": "True"}, 
      "inputs": []
    }, 
    {
      "op": "null", 
      "name": "in4B_conv10_7*1_batchnorm_beta", 
      "attrs": {"fix_gamma": "True"}, 
      "inputs": []
    }, 
    {
      "op": "null", 
      "name": "in4B_conv10_7*1_batchnorm_moving_mean", 
      "attrs": {
        "__init__": "[\"zero\", {}]", 
        "fix_gamma": "True"
      }, 
      "inputs": []
    }, 
    {
      "op": "null", 
      "name": "in4B_conv10_7*1_batchnorm_moving_var", 
      "attrs": {
        "__init__": "[\"one\", {}]", 
        "fix_gamma": "True"
      }, 
      "inputs": []
    }, 
    {
      "op": "BatchNorm", 
      "name": "in4B_conv10_7*1_batchnorm", 
      "attrs": {"fix_gamma": "True"}, 
      "inputs": [[681, 0, 0], [682, 0, 0], [683, 0, 0], [684, 0, 1], [685, 0, 1]]
    }, 
    {
      "op": "Activation", 
      "name": "in4B_conv10_7*1_relu", 
      "attrs": {"act_type": "relu"}, 
      "inputs": [[686, 0, 0]]
    }, 
    {
      "op": "Concat", 
      "name": "in4B_concat_1", 
      "attrs": {"num_args": "4"}, 
      "inputs": [[615, 0, 0], [623, 0, 0], [647, 0, 0], [687, 0, 0]]
    }, 
    {
      "op": "Pooling", 
      "name": "in5B_avgpool_1", 
      "attrs": {
        "kernel": "(3, 3)", 
        "pad": "(1, 1)", 
        "pool_type": "avg"
      }, 
      "inputs": [[688, 0, 0]]
    }, 
    {
      "op": "null", 
      "name": "in5B_conv1_1*1_conv2d_weight", 
      "attrs": {
        "kernel": "(1, 1)", 
        "no_bias": "True", 
        "num_filter": "128", 
        "pad": "(0, 0)", 
        "stride": "(1, 1)"
      }, 
      "inputs": []
    }, 
    {
      "op": "Convolution", 
      "name": "in5B_conv1_1*1_conv2d", 
      "attrs": {
        "kernel": "(1, 1)", 
        "no_bias": "True", 
        "num_filter": "128", 
        "pad": "(0, 0)", 
        "stride": "(1, 1)"
      }, 
      "inputs": [[689, 0, 0], [690, 0, 0]]
    }, 
    {
      "op": "null", 
      "name": "in5B_conv1_1*1_batchnorm_gamma", 
      "attrs": {"fix_gamma": "True"}, 
      "inputs": []
    }, 
    {
      "op": "null", 
      "name": "in5B_conv1_1*1_batchnorm_beta", 
      "attrs": {"fix_gamma": "True"}, 
      "inputs": []
    }, 
    {
      "op": "null", 
      "name": "in5B_conv1_1*1_batchnorm_moving_mean", 
      "attrs": {
        "__init__": "[\"zero\", {}]", 
        "fix_gamma": "True"
      }, 
      "inputs": []
    }, 
    {
      "op": "null", 
      "name": "in5B_conv1_1*1_batchnorm_moving_var", 
      "attrs": {
        "__init__": "[\"one\", {}]", 
        "fix_gamma": "True"
      }, 
      "inputs": []
    }, 
    {
      "op": "BatchNorm", 
      "name": "in5B_conv1_1*1_batchnorm", 
      "attrs": {"fix_gamma": "True"}, 
      "inputs": [[691, 0, 0], [692, 0, 0], [693, 0, 0], [694, 0, 1], [695, 0, 1]]
    }, 
    {
      "op": "Activation", 
      "name": "in5B_conv1_1*1_relu", 
      "attrs": {"act_type": "relu"}, 
      "inputs": [[696, 0, 0]]
    }, 
    {
      "op": "null", 
      "name": "in5B_conv2_1*1_conv2d_weight", 
      "attrs": {
        "kernel": "(1, 1)", 
        "no_bias": "True", 
        "num_filter": "384", 
        "pad": "(0, 0)", 
        "stride": "(1, 1)"
      }, 
      "inputs": []
    }, 
    {
      "op": "Convolution", 
      "name": "in5B_conv2_1*1_conv2d", 
      "attrs": {
        "kernel": "(1, 1)", 
        "no_bias": "True", 
        "num_filter": "384", 
        "pad": "(0, 0)", 
        "stride": "(1, 1)"
      }, 
      "inputs": [[688, 0, 0], [698, 0, 0]]
    }, 
    {
      "op": "null", 
      "name": "in5B_conv2_1*1_batchnorm_gamma", 
      "attrs": {"fix_gamma": "True"}, 
      "inputs": []
    }, 
    {
      "op": "null", 
      "name": "in5B_conv2_1*1_batchnorm_beta", 
      "attrs": {"fix_gamma": "True"}, 
      "inputs": []
    }, 
    {
      "op": "null", 
      "name": "in5B_conv2_1*1_batchnorm_moving_mean", 
      "attrs": {
        "__init__": "[\"zero\", {}]", 
        "fix_gamma": "True"
      }, 
      "inputs": []
    }, 
    {
      "op": "null", 
      "name": "in5B_conv2_1*1_batchnorm_moving_var", 
      "attrs": {
        "__init__": "[\"one\", {}]", 
        "fix_gamma": "True"
      }, 
      "inputs": []
    }, 
    {
      "op": "BatchNorm", 
      "name": "in5B_conv2_1*1_batchnorm", 
      "attrs": {"fix_gamma": "True"}, 
      "inputs": [[699, 0, 0], [700, 0, 0], [701, 0, 0], [702, 0, 1], [703, 0, 1]]
    }, 
    {
      "op": "Activation", 
      "name": "in5B_conv2_1*1_relu", 
      "attrs": {"act_type": "relu"}, 
      "inputs": [[704, 0, 0]]
    }, 
    {
      "op": "null", 
      "name": "in5B_conv3_1*1_conv2d_weight", 
      "attrs": {
        "kernel": "(1, 1)", 
        "no_bias": "True", 
        "num_filter": "192", 
        "pad": "(0, 0)", 
        "stride": "(1, 1)"
      }, 
      "inputs": []
    }, 
    {
      "op": "Convolution", 
      "name": "in5B_conv3_1*1_conv2d", 
      "attrs": {
        "kernel": "(1, 1)", 
        "no_bias": "True", 
        "num_filter": "192", 
        "pad": "(0, 0)", 
        "stride": "(1, 1)"
      }, 
      "inputs": [[688, 0, 0], [706, 0, 0]]
    }, 
    {
      "op": "null", 
      "name": "in5B_conv3_1*1_batchnorm_gamma", 
      "attrs": {"fix_gamma": "True"}, 
      "inputs": []
    }, 
    {
      "op": "null", 
      "name": "in5B_conv3_1*1_batchnorm_beta", 
      "attrs": {"fix_gamma": "True"}, 
      "inputs": []
    }, 
    {
      "op": "null", 
      "name": "in5B_conv3_1*1_batchnorm_moving_mean", 
      "attrs": {
        "__init__": "[\"zero\", {}]", 
        "fix_gamma": "True"
      }, 
      "inputs": []
    }, 
    {
      "op": "null", 
      "name": "in5B_conv3_1*1_batchnorm_moving_var", 
      "attrs": {
        "__init__": "[\"one\", {}]", 
        "fix_gamma": "True"
      }, 
      "inputs": []
    }, 
    {
      "op": "BatchNorm", 
      "name": "in5B_conv3_1*1_batchnorm", 
      "attrs": {"fix_gamma": "True"}, 
      "inputs": [[707, 0, 0], [708, 0, 0], [709, 0, 0], [710, 0, 1], [711, 0, 1]]
    }, 
    {
      "op": "Activation", 
      "name": "in5B_conv3_1*1_relu", 
      "attrs": {"act_type": "relu"}, 
      "inputs": [[712, 0, 0]]
    }, 
    {
      "op": "null", 
      "name": "in5B_conv4_1*7_conv2d_weight", 
      "attrs": {
        "kernel": "(1, 7)", 
        "no_bias": "True", 
        "num_filter": "224", 
        "pad": "(0, 3)", 
        "stride": "(1, 1)"
      }, 
      "inputs": []
    }, 
    {
      "op": "Convolution", 
      "name": "in5B_conv4_1*7_conv2d", 
      "attrs": {
        "kernel": "(1, 7)", 
        "no_bias": "True", 
        "num_filter": "224", 
        "pad": "(0, 3)", 
        "stride": "(1, 1)"
      }, 
      "inputs": [[713, 0, 0], [714, 0, 0]]
    }, 
    {
      "op": "null", 
      "name": "in5B_conv4_1*7_batchnorm_gamma", 
      "attrs": {"fix_gamma": "True"}, 
      "inputs": []
    }, 
    {
      "op": "null", 
      "name": "in5B_conv4_1*7_batchnorm_beta", 
      "attrs": {"fix_gamma": "True"}, 
      "inputs": []
    }, 
    {
      "op": "null", 
      "name": "in5B_conv4_1*7_batchnorm_moving_mean", 
      "attrs": {
        "__init__": "[\"zero\", {}]", 
        "fix_gamma": "True"
      }, 
      "inputs": []
    }, 
    {
      "op": "null", 
      "name": "in5B_conv4_1*7_batchnorm_moving_var", 
      "attrs": {
        "__init__": "[\"one\", {}]", 
        "fix_gamma": "True"
      }, 
      "inputs": []
    }, 
    {
      "op": "BatchNorm", 
      "name": "in5B_conv4_1*7_batchnorm", 
      "attrs": {"fix_gamma": "True"}, 
      "inputs": [[715, 0, 0], [716, 0, 0], [717, 0, 0], [718, 0, 1], [719, 0, 1]]
    }, 
    {
      "op": "Activation", 
      "name": "in5B_conv4_1*7_relu", 
      "attrs": {"act_type": "relu"}, 
      "inputs": [[720, 0, 0]]
    }, 
    {
      "op": "null", 
      "name": "in5B_conv5_1*7_conv2d_weight", 
      "attrs": {
        "kernel": "(7, 1)", 
        "no_bias": "True", 
        "num_filter": "256", 
        "pad": "(3, 0)", 
        "stride": "(1, 1)"
      }, 
      "inputs": []
    }, 
    {
      "op": "Convolution", 
      "name": "in5B_conv5_1*7_conv2d", 
      "attrs": {
        "kernel": "(7, 1)", 
        "no_bias": "True", 
        "num_filter": "256", 
        "pad": "(3, 0)", 
        "stride": "(1, 1)"
      }, 
      "inputs": [[721, 0, 0], [722, 0, 0]]
    }, 
    {
      "op": "null", 
      "name": "in5B_conv5_1*7_batchnorm_gamma", 
      "attrs": {"fix_gamma": "True"}, 
      "inputs": []
    }, 
    {
      "op": "null", 
      "name": "in5B_conv5_1*7_batchnorm_beta", 
      "attrs": {"fix_gamma": "True"}, 
      "inputs": []
    }, 
    {
      "op": "null", 
      "name": "in5B_conv5_1*7_batchnorm_moving_mean", 
      "attrs": {
        "__init__": "[\"zero\", {}]", 
        "fix_gamma": "True"
      }, 
      "inputs": []
    }, 
    {
      "op": "null", 
      "name": "in5B_conv5_1*7_batchnorm_moving_var", 
      "attrs": {
        "__init__": "[\"one\", {}]", 
        "fix_gamma": "True"
      }, 
      "inputs": []
    }, 
    {
      "op": "BatchNorm", 
      "name": "in5B_conv5_1*7_batchnorm", 
      "attrs": {"fix_gamma": "True"}, 
      "inputs": [[723, 0, 0], [724, 0, 0], [725, 0, 0], [726, 0, 1], [727, 0, 1]]
    }, 
    {
      "op": "Activation", 
      "name": "in5B_conv5_1*7_relu", 
      "attrs": {"act_type": "relu"}, 
      "inputs": [[728, 0, 0]]
    }, 
    {
      "op": "null", 
      "name": "in5B_conv6_1*1_conv2d_weight", 
      "attrs": {
        "kernel": "(1, 1)", 
        "no_bias": "True", 
        "num_filter": "192", 
        "pad": "(0, 0)", 
        "stride": "(1, 1)"
      }, 
      "inputs": []
    }, 
    {
      "op": "Convolution", 
      "name": "in5B_conv6_1*1_conv2d", 
      "attrs": {
        "kernel": "(1, 1)", 
        "no_bias": "True", 
        "num_filter": "192", 
        "pad": "(0, 0)", 
        "stride": "(1, 1)"
      }, 
      "inputs": [[688, 0, 0], [730, 0, 0]]
    }, 
    {
      "op": "null", 
      "name": "in5B_conv6_1*1_batchnorm_gamma", 
      "attrs": {"fix_gamma": "True"}, 
      "inputs": []
    }, 
    {
      "op": "null", 
      "name": "in5B_conv6_1*1_batchnorm_beta", 
      "attrs": {"fix_gamma": "True"}, 
      "inputs": []
    }, 
    {
      "op": "null", 
      "name": "in5B_conv6_1*1_batchnorm_moving_mean", 
      "attrs": {
        "__init__": "[\"zero\", {}]", 
        "fix_gamma": "True"
      }, 
      "inputs": []
    }, 
    {
      "op": "null", 
      "name": "in5B_conv6_1*1_batchnorm_moving_var", 
      "attrs": {
        "__init__": "[\"one\", {}]", 
        "fix_gamma": "True"
      }, 
      "inputs": []
    }, 
    {
      "op": "BatchNorm", 
      "name": "in5B_conv6_1*1_batchnorm", 
      "attrs": {"fix_gamma": "True"}, 
      "inputs": [[731, 0, 0], [732, 0, 0], [733, 0, 0], [734, 0, 1], [735, 0, 1]]
    }, 
    {
      "op": "Activation", 
      "name": "in5B_conv6_1*1_relu", 
      "attrs": {"act_type": "relu"}, 
      "inputs": [[736, 0, 0]]
    }, 
    {
      "op": "null", 
      "name": "in5B_conv7_1*7_conv2d_weight", 
      "attrs": {
        "kernel": "(1, 7)", 
        "no_bias": "True", 
        "num_filter": "192", 
        "pad": "(0, 3)", 
        "stride": "(1, 1)"
      }, 
      "inputs": []
    }, 
    {
      "op": "Convolution", 
      "name": "in5B_conv7_1*7_conv2d", 
      "attrs": {
        "kernel": "(1, 7)", 
        "no_bias": "True", 
        "num_filter": "192", 
        "pad": "(0, 3)", 
        "stride": "(1, 1)"
      }, 
      "inputs": [[737, 0, 0], [738, 0, 0]]
    }, 
    {
      "op": "null", 
      "name": "in5B_conv7_1*7_batchnorm_gamma", 
      "attrs": {"fix_gamma": "True"}, 
      "inputs": []
    }, 
    {
      "op": "null", 
      "name": "in5B_conv7_1*7_batchnorm_beta", 
      "attrs": {"fix_gamma": "True"}, 
      "inputs": []
    }, 
    {
      "op": "null", 
      "name": "in5B_conv7_1*7_batchnorm_moving_mean", 
      "attrs": {
        "__init__": "[\"zero\", {}]", 
        "fix_gamma": "True"
      }, 
      "inputs": []
    }, 
    {
      "op": "null", 
      "name": "in5B_conv7_1*7_batchnorm_moving_var", 
      "attrs": {
        "__init__": "[\"one\", {}]", 
        "fix_gamma": "True"
      }, 
      "inputs": []
    }, 
    {
      "op": "BatchNorm", 
      "name": "in5B_conv7_1*7_batchnorm", 
      "attrs": {"fix_gamma": "True"}, 
      "inputs": [[739, 0, 0], [740, 0, 0], [741, 0, 0], [742, 0, 1], [743, 0, 1]]
    }, 
    {
      "op": "Activation", 
      "name": "in5B_conv7_1*7_relu", 
      "attrs": {"act_type": "relu"}, 
      "inputs": [[744, 0, 0]]
    }, 
    {
      "op": "null", 
      "name": "in5B_conv8_7*1_conv2d_weight", 
      "attrs": {
        "kernel": "(7, 1)", 
        "no_bias": "True", 
        "num_filter": "224", 
        "pad": "(3, 0)", 
        "stride": "(1, 1)"
      }, 
      "inputs": []
    }, 
    {
      "op": "Convolution", 
      "name": "in5B_conv8_7*1_conv2d", 
      "attrs": {
        "kernel": "(7, 1)", 
        "no_bias": "True", 
        "num_filter": "224", 
        "pad": "(3, 0)", 
        "stride": "(1, 1)"
      }, 
      "inputs": [[745, 0, 0], [746, 0, 0]]
    }, 
    {
      "op": "null", 
      "name": "in5B_conv8_7*1_batchnorm_gamma", 
      "attrs": {"fix_gamma": "True"}, 
      "inputs": []
    }, 
    {
      "op": "null", 
      "name": "in5B_conv8_7*1_batchnorm_beta", 
      "attrs": {"fix_gamma": "True"}, 
      "inputs": []
    }, 
    {
      "op": "null", 
      "name": "in5B_conv8_7*1_batchnorm_moving_mean", 
      "attrs": {
        "__init__": "[\"zero\", {}]", 
        "fix_gamma": "True"
      }, 
      "inputs": []
    }, 
    {
      "op": "null", 
      "name": "in5B_conv8_7*1_batchnorm_moving_var", 
      "attrs": {
        "__init__": "[\"one\", {}]", 
        "fix_gamma": "True"
      }, 
      "inputs": []
    }, 
    {
      "op": "BatchNorm", 
      "name": "in5B_conv8_7*1_batchnorm", 
…
      }, 
      "inputs": []
    }, 
    {
      "op": "null", 
      "name": "in2C_conv3_1*1_batchnorm_moving_var", 
      "attrs": {
        "__init__": "[\"one\", {}]", 
        "fix_gamma": "True"
      }, 
      "inputs": []
    }, 
    {
      "op": "BatchNorm", 
      "name": "in2C_conv3_1*1_batchnorm", 
      "attrs": {"fix_gamma": "True"}, 
      "inputs": [[1085, 0, 0], [1086, 0, 0], [1087, 0, 0], [1088, 0, 1], [1089, 0, 1]]
    }, 
    {
      "op": "Activation", 
      "name": "in2C_conv3_1*1_relu", 
      "attrs": {"act_type": "relu"}, 
      "inputs": [[1090, 0, 0]]
    }, 
    {
      "op": "null", 
      "name": "in2C_conv4_3*1_conv2d_weight", 
      "attrs": {
        "kernel": "(1, 3)", 
        "no_bias": "True", 
        "num_filter": "256", 
        "pad": "(0, 1)", 
        "stride": "(1, 1)"
      }, 
      "inputs": []
    }, 
    {
      "op": "Convolution", 
      "name": "in2C_conv4_3*1_conv2d", 
      "attrs": {
        "kernel": "(1, 3)", 
        "no_bias": "True", 
        "num_filter": "256", 
        "pad": "(0, 1)", 
        "stride": "(1, 1)"
      }, 
      "inputs": [[1091, 0, 0], [1092, 0, 0]]
    }, 
    {
      "op": "null", 
      "name": "in2C_conv4_3*1_batchnorm_gamma", 
      "attrs": {"fix_gamma": "True"}, 
      "inputs": []
    }, 
    {
      "op": "null", 
      "name": "in2C_conv4_3*1_batchnorm_beta", 
      "attrs": {"fix_gamma": "True"}, 
      "inputs": []
    }, 
    {
      "op": "null", 
      "name": "in2C_conv4_3*1_batchnorm_moving_mean", 
      "attrs": {
        "__init__": "[\"zero\", {}]", 
        "fix_gamma": "True"
      }, 
      "inputs": []
    }, 
    {
      "op": "null", 
      "name": "in2C_conv4_3*1_batchnorm_moving_var", 
      "attrs": {
        "__init__": "[\"one\", {}]", 
        "fix_gamma": "True"
      }, 
      "inputs": []
    }, 
    {
      "op": "BatchNorm", 
      "name": "in2C_conv4_3*1_batchnorm", 
      "attrs": {"fix_gamma": "True"}, 
      "inputs": [[1093, 0, 0], [1094, 0, 0], [1095, 0, 0], [1096, 0, 1], [1097, 0, 1]]
    }, 
    {
      "op": "Activation", 
      "name": "in2C_conv4_3*1_relu", 
      "attrs": {"act_type": "relu"}, 
      "inputs": [[1098, 0, 0]]
    }, 
    {
      "op": "null", 
      "name": "in2C_conv5_1*3_conv2d_weight", 
      "attrs": {
        "kernel": "(3, 1)", 
        "no_bias": "True", 
        "num_filter": "256", 
        "pad": "(1, 0)", 
        "stride": "(1, 1)"
      }, 
      "inputs": []
    }, 
    {
      "op": "Convolution", 
      "name": "in2C_conv5_1*3_conv2d", 
      "attrs": {
        "kernel": "(3, 1)", 
        "no_bias": "True", 
        "num_filter": "256", 
        "pad": "(1, 0)", 
        "stride": "(1, 1)"
      }, 
      "inputs": [[1091, 0, 0], [1100, 0, 0]]
    }, 
    {
      "op": "null", 
      "name": "in2C_conv5_1*3_batchnorm_gamma", 
      "attrs": {"fix_gamma": "True"}, 
      "inputs": []
    }, 
    {
      "op": "null", 
      "name": "in2C_conv5_1*3_batchnorm_beta", 
      "attrs": {"fix_gamma": "True"}, 
      "inputs": []
    }, 
    {
      "op": "null", 
      "name": "in2C_conv5_1*3_batchnorm_moving_mean", 
      "attrs": {
        "__init__": "[\"zero\", {}]", 
        "fix_gamma": "True"
      }, 
      "inputs": []
    }, 
    {
      "op": "null", 
      "name": "in2C_conv5_1*3_batchnorm_moving_var", 
      "attrs": {
        "__init__": "[\"one\", {}]", 
        "fix_gamma": "True"
      }, 
      "inputs": []
    }, 
    {
      "op": "BatchNorm", 
      "name": "in2C_conv5_1*3_batchnorm", 
      "attrs": {"fix_gamma": "True"}, 
      "inputs": [[1101, 0, 0], [1102, 0, 0], [1103, 0, 0], [1104, 0, 1], [1105, 0, 1]]
    }, 
    {
      "op": "Activation", 
      "name": "in2C_conv5_1*3_relu", 
      "attrs": {"act_type": "relu"}, 
      "inputs": [[1106, 0, 0]]
    }, 
    {
      "op": "null", 
      "name": "in2C_conv6_1*1_conv2d_weight", 
      "attrs": {
        "kernel": "(1, 1)", 
        "no_bias": "True", 
        "num_filter": "384", 
        "pad": "(0, 0)", 
        "stride": "(1, 1)"
      }, 
      "inputs": []
    }, 
    {
      "op": "Convolution", 
      "name": "in2C_conv6_1*1_conv2d", 
      "attrs": {
        "kernel": "(1, 1)", 
        "no_bias": "True", 
        "num_filter": "384", 
        "pad": "(0, 0)", 
        "stride": "(1, 1)"
      }, 
      "inputs": [[1066, 0, 0], [1108, 0, 0]]
    }, 
    {
      "op": "null", 
      "name": "in2C_conv6_1*1_batchnorm_gamma", 
      "attrs": {"fix_gamma": "True"}, 
      "inputs": []
    }, 
    {
      "op": "null", 
      "name": "in2C_conv6_1*1_batchnorm_beta", 
      "attrs": {"fix_gamma": "True"}, 
      "inputs": []
    }, 
    {
      "op": "null", 
      "name": "in2C_conv6_1*1_batchnorm_moving_mean", 
      "attrs": {
        "__init__": "[\"zero\", {}]", 
        "fix_gamma": "True"
      }, 
      "inputs": []
    }, 
    {
      "op": "null", 
      "name": "in2C_conv6_1*1_batchnorm_moving_var", 
      "attrs": {
        "__init__": "[\"one\", {}]", 
        "fix_gamma": "True"
      }, 
      "inputs": []
    }, 
    {
      "op": "BatchNorm", 
      "name": "in2C_conv6_1*1_batchnorm", 
      "attrs": {"fix_gamma": "True"}, 
      "inputs": [[1109, 0, 0], [1110, 0, 0], [1111, 0, 0], [1112, 0, 1], [1113, 0, 1]]
    }, 
    {
      "op": "Activation", 
      "name": "in2C_conv6_1*1_relu", 
      "attrs": {"act_type": "relu"}, 
      "inputs": [[1114, 0, 0]]
    }, 
    {
      "op": "null", 
      "name": "in2C_conv7_1*3_conv2d_weight", 
      "attrs": {
        "kernel": "(1, 3)", 
        "no_bias": "True", 
        "num_filter": "448", 
        "pad": "(0, 1)", 
        "stride": "(1, 1)"
      }, 
      "inputs": []
    }, 
    {
      "op": "Convolution", 
      "name": "in2C_conv7_1*3_conv2d", 
      "attrs": {
        "kernel": "(1, 3)", 
        "no_bias": "True", 
        "num_filter": "448", 
        "pad": "(0, 1)", 
        "stride": "(1, 1)"
      }, 
      "inputs": [[1115, 0, 0], [1116, 0, 0]]
    }, 
    {
      "op": "null", 
      "name": "in2C_conv7_1*3_batchnorm_gamma", 
      "attrs": {"fix_gamma": "True"}, 
      "inputs": []
    }, 
    {
      "op": "null", 
      "name": "in2C_conv7_1*3_batchnorm_beta", 
      "attrs": {"fix_gamma": "True"}, 
      "inputs": []
    }, 
    {
      "op": "null", 
      "name": "in2C_conv7_1*3_batchnorm_moving_mean", 
      "attrs": {
        "__init__": "[\"zero\", {}]", 
        "fix_gamma": "True"
      }, 
      "inputs": []
    }, 
    {
      "op": "null", 
      "name": "in2C_conv7_1*3_batchnorm_moving_var", 
      "attrs": {
        "__init__": "[\"one\", {}]", 
        "fix_gamma": "True"
      }, 
      "inputs": []
    }, 
    {
      "op": "BatchNorm", 
      "name": "in2C_conv7_1*3_batchnorm", 
      "attrs": {"fix_gamma": "True"}, 
      "inputs": [[1117, 0, 0], [1118, 0, 0], [1119, 0, 0], [1120, 0, 1], [1121, 0, 1]]
    }, 
    {
      "op": "Activation", 
      "name": "in2C_conv7_1*3_relu", 
      "attrs": {"act_type": "relu"}, 
      "inputs": [[1122, 0, 0]]
    }, 
    {
      "op": "null", 
      "name": "in2C_conv8_3*1_conv2d_weight", 
      "attrs": {
        "kernel": "(3, 1)", 
        "no_bias": "True", 
        "num_filter": "512", 
        "pad": "(1, 0)", 
        "stride": "(1, 1)"
      }, 
      "inputs": []
    }, 
    {
      "op": "Convolution", 
      "name": "in2C_conv8_3*1_conv2d", 
      "attrs": {
        "kernel": "(3, 1)", 
        "no_bias": "True", 
        "num_filter": "512", 
        "pad": "(1, 0)", 
        "stride": "(1, 1)"
      }, 
      "inputs": [[1123, 0, 0], [1124, 0, 0]]
    }, 
    {
      "op": "null", 
      "name": "in2C_conv8_3*1_batchnorm_gamma", 
      "attrs": {"fix_gamma": "True"}, 
      "inputs": []
    }, 
    {
      "op": "null", 
      "name": "in2C_conv8_3*1_batchnorm_beta", 
      "attrs": {"fix_gamma": "True"}, 
      "inputs": []
    }, 
    {
      "op": "null", 
      "name": "in2C_conv8_3*1_batchnorm_moving_mean", 
      "attrs": {
        "__init__": "[\"zero\", {}]", 
        "fix_gamma": "True"
      }, 
      "inputs": []
    }, 
    {
      "op": "null", 
      "name": "in2C_conv8_3*1_batchnorm_moving_var", 
      "attrs": {
        "__init__": "[\"one\", {}]", 
        "fix_gamma": "True"
      }, 
      "inputs": []
    }, 
    {
      "op": "BatchNorm", 
      "name": "in2C_conv8_3*1_batchnorm", 
      "attrs": {"fix_gamma": "True"}, 
      "inputs": [[1125, 0, 0], [1126, 0, 0], [1127, 0, 0], [1128, 0, 1], [1129, 0, 1]]
    }, 
    {
      "op": "Activation", 
      "name": "in2C_conv8_3*1_relu", 
      "attrs": {"act_type": "relu"}, 
      "inputs": [[1130, 0, 0]]
    }, 
    {
      "op": "null", 
      "name": "in2C_conv9_1*3_conv2d_weight", 
      "attrs": {
        "kernel": "(3, 1)", 
        "no_bias": "True", 
        "num_filter": "256", 
        "pad": "(1, 0)", 
        "stride": "(1, 1)"
      }, 
      "inputs": []
    }, 
    {
      "op": "Convolution", 
      "name": "in2C_conv9_1*3_conv2d", 
      "attrs": {
        "kernel": "(3, 1)", 
        "no_bias": "True", 
        "num_filter": "256", 
        "pad": "(1, 0)", 
        "stride": "(1, 1)"
      }, 
      "inputs": [[1131, 0, 0], [1132, 0, 0]]
    }, 
    {
      "op": "null", 
      "name": "in2C_conv9_1*3_batchnorm_gamma", 
      "attrs": {"fix_gamma": "True"}, 
      "inputs": []
    }, 
    {
      "op": "null", 
      "name": "in2C_conv9_1*3_batchnorm_beta", 
      "attrs": {"fix_gamma": "True"}, 
      "inputs": []
    }, 
    {
      "op": "null", 
      "name": "in2C_conv9_1*3_batchnorm_moving_mean", 
      "attrs": {
        "__init__": "[\"zero\", {}]", 
        "fix_gamma": "True"
      }, 
      "inputs": []
    }, 
    {
      "op": "null", 
      "name": "in2C_conv9_1*3_batchnorm_moving_var", 
      "attrs": {
        "__init__": "[\"one\", {}]", 
        "fix_gamma": "True"
      }, 
      "inputs": []
    }, 
    {
      "op": "BatchNorm", 
      "name": "in2C_conv9_1*3_batchnorm", 
      "attrs": {"fix_gamma": "True"}, 
      "inputs": [[1133, 0, 0], [1134, 0, 0], [1135, 0, 0], [1136, 0, 1], [1137, 0, 1]]
    }, 
    {
      "op": "Activation", 
      "name": "in2C_conv9_1*3_relu", 
      "attrs": {"act_type": "relu"}, 
      "inputs": [[1138, 0, 0]]
    }, 
    {
      "op": "null", 
      "name": "in2C_conv10_3*1_conv2d_weight", 
      "attrs": {
        "kernel": "(1, 3)", 
        "no_bias": "True", 
        "num_filter": "256", 
        "pad": "(0, 1)", 
        "stride": "(1, 1)"
      }, 
      "inputs": []
    }, 
    {
      "op": "Convolution", 
      "name": "in2C_conv10_3*1_conv2d", 
      "attrs": {
        "kernel": "(1, 3)", 
        "no_bias": "True", 
        "num_filter": "256", 
        "pad": "(0, 1)", 
        "stride": "(1, 1)"
      }, 
      "inputs": [[1131, 0, 0], [1140, 0, 0]]
    }, 
    {
      "op": "null", 
      "name": "in2C_conv10_3*1_batchnorm_gamma", 
      "attrs": {"fix_gamma": "True"}, 
      "inputs": []
    }, 
    {
      "op": "null", 
      "name": "in2C_conv10_3*1_batchnorm_beta", 
      "attrs": {"fix_gamma": "True"}, 
      "inputs": []
    }, 
    {
      "op": "null", 
      "name": "in2C_conv10_3*1_batchnorm_moving_mean", 
      "attrs": {
        "__init__": "[\"zero\", {}]", 
        "fix_gamma": "True"
      }, 
      "inputs": []
    }, 
    {
      "op": "null", 
      "name": "in2C_conv10_3*1_batchnorm_moving_var", 
      "attrs": {
        "__init__": "[\"one\", {}]", 
        "fix_gamma": "True"
      }, 
      "inputs": []
    }, 
    {
      "op": "BatchNorm", 
      "name": "in2C_conv10_3*1_batchnorm", 
      "attrs": {"fix_gamma": "True"}, 
      "inputs": [[1141, 0, 0], [1142, 0, 0], [1143, 0, 0], [1144, 0, 1], [1145, 0, 1]]
    }, 
    {
      "op": "Activation", 
      "name": "in2C_conv10_3*1_relu", 
      "attrs": {"act_type": "relu"}, 
      "inputs": [[1146, 0, 0]]
    }, 
    {
      "op": "Concat", 
      "name": "in2C_concat", 
      "attrs": {"num_args": "6"}, 
      "inputs": [[1075, 0, 0], [1083, 0, 0], [1099, 0, 0], [1107, 0, 0], [1139, 0, 0], [1147, 0, 0]]
    }, 
    {
      "op": "Pooling", 
      "name": "in3C_avgpool_1", 
      "attrs": {
        "kernel": "(3, 3)", 
        "pad": "(1, 1)", 
        "pool_type": "avg"
      }, 
      "inputs": [[1148, 0, 0]]
    }, 
    {
      "op": "null", 
      "name": "in3C_conv1_1*1_conv2d_weight", 
      "attrs": {
        "kernel": "(1, 1)", 
        "no_bias": "True", 
        "num_filter": "256", 
        "pad": "(0, 0)", 
        "stride": "(1, 1)"
      }, 
      "inputs": []
    }, 
    {
      "op": "Convolution", 
      "name": "in3C_conv1_1*1_conv2d", 
      "attrs": {
        "kernel": "(1, 1)", 
        "no_bias": "True", 
        "num_filter": "256", 
        "pad": "(0, 0)", 
        "stride": "(1, 1)"
      }, 
      "inputs": [[1149, 0, 0], [1150, 0, 0]]
    }, 
    {
      "op": "null", 
      "name": "in3C_conv1_1*1_batchnorm_gamma", 
      "attrs": {"fix_gamma": "True"}, 
      "inputs": []
    }, 
    {
      "op": "null", 
      "name": "in3C_conv1_1*1_batchnorm_beta", 
      "attrs": {"fix_gamma": "True"}, 
      "inputs": []
    }, 
    {
      "op": "null", 
      "name": "in3C_conv1_1*1_batchnorm_moving_mean", 
      "attrs": {
        "__init__": "[\"zero\", {}]", 
        "fix_gamma": "True"
      }, 
      "inputs": []
    }, 
    {
      "op": "null", 
      "name": "in3C_conv1_1*1_batchnorm_moving_var", 
      "attrs": {
        "__init__": "[\"one\", {}]", 
        "fix_gamma": "True"
      }, 
      "inputs": []
    }, 
    {
      "op": "BatchNorm", 
      "name": "in3C_conv1_1*1_batchnorm", 
      "attrs": {"fix_gamma": "True"}, 
      "inputs": [[1151, 0, 0], [1152, 0, 0], [1153, 0, 0], [1154, 0, 1], [1155, 0, 1]]
    }, 
    {
      "op": "Activation", 
      "name": "in3C_conv1_1*1_relu", 
      "attrs": {"act_type": "relu"}, 
      "inputs": [[1156, 0, 0]]
    }, 
    {
      "op": "null", 
      "name": "in3C_conv2_1*1_conv2d_weight", 
      "attrs": {
        "kernel": "(1, 1)", 
        "no_bias": "True", 
        "num_filter": "256", 
        "pad": "(0, 0)", 
        "stride": "(1, 1)"
      }, 
      "inputs": []
    }, 
    {
      "op": "Convolution", 
      "name": "in3C_conv2_1*1_conv2d", 
      "attrs": {
        "kernel": "(1, 1)", 
        "no_bias": "True", 
        "num_filter": "256", 
        "pad": "(0, 0)", 
        "stride": "(1, 1)"
      }, 
      "inputs": [[1148, 0, 0], [1158, 0, 0]]
    }, 
    {
      "op": "null", 
      "name": "in3C_conv2_1*1_batchnorm_gamma", 
      "attrs": {"fix_gamma": "True"}, 
      "inputs": []
    }, 
    {
      "op": "null", 
      "name": "in3C_conv2_1*1_batchnorm_beta", 
      "attrs": {"fix_gamma": "True"}, 
      "inputs": []
    }, 
    {
      "op": "null", 
      "name": "in3C_conv2_1*1_batchnorm_moving_mean", 
      "attrs": {
        "__init__": "[\"zero\", {}]", 
        "fix_gamma": "True"
      }, 
      "inputs": []
    }, 
    {
      "op": "null", 
      "name": "in3C_conv2_1*1_batchnorm_moving_var", 
      "attrs": {
        "__init__": "[\"one\", {}]", 
        "fix_gamma": "True"
      }, 
      "inputs": []
    }, 
    {
      "op": "BatchNorm", 
      "name": "in3C_conv2_1*1_batchnorm", 
      "attrs": {"fix_gamma": "True"}, 
      "inputs": [[1159, 0, 0], [1160, 0, 0], [1161, 0, 0], [1162, 0, 1], [1163, 0, 1]]
    }, 
    {
      "op": "Activation", 
      "name": "in3C_conv2_1*1_relu", 
      "attrs": {"act_type": "relu"}, 
      "inputs": [[1164, 0, 0]]
    }, 
    {
      "op": "null", 
      "name": "in3C_conv3_1*1_conv2d_weight", 
      "attrs": {
        "kernel": "(1, 1)", 
        "no_bias": "True", 
        "num_filter": "384", 
        "pad": "(0, 0)", 
        "stride": "(1, 1)"
      }, 
      "inputs": []
    }, 
    {
      "op": "Convolution", 
      "name": "in3C_conv3_1*1_conv2d", 
      "attrs": {
        "kernel": "(1, 1)", 
        "no_bias": "True", 
        "num_filter": "384", 
        "pad": "(0, 0)", 
        "stride": "(1, 1)"
      }, 
      "inputs": [[1148, 0, 0], [1166, 0, 0]]
    }, 
    {
      "op": "null", 
      "name": "in3C_conv3_1*1_batchnorm_gamma", 
      "attrs": {"fix_gamma": "True"}, 
      "inputs": []
    }, 
    {
      "op": "null", 
      "name": "in3C_conv3_1*1_batchnorm_beta", 
      "attrs": {"fix_gamma": "True"}, 
      "inputs": []
    }, 
    {
      "op": "null", 
      "name": "in3C_conv3_1*1_batchnorm_moving_mean", 
      "attrs": {
        "__init__": "[\"zero\", {}]", 
        "fix_gamma": "True"
      }, 
      "inputs": []
    }, 
    {
      "op": "null", 
      "name": "in3C_conv3_1*1_batchnorm_moving_var", 
      "attrs": {
        "__init__": "[\"one\", {}]", 
        "fix_gamma": "True"
      }, 
      "inputs": []
    }, 
    {
      "op": "BatchNorm", 
      "name": "in3C_conv3_1*1_batchnorm", 
      "attrs": {"fix_gamma": "True"}, 
      "inputs": [[1167, 0, 0], [1168, 0, 0], [1169, 0, 0], [1170, 0, 1], [1171, 0, 1]]
    }, 
    {
      "op": "Activation", 
      "name": "in3C_conv3_1*1_relu", 
      "attrs": {"act_type": "relu"}, 
      "inputs": [[1172, 0, 0]]
    }, 
    {
      "op": "null", 
      "name": "in3C_conv4_3*1_conv2d_weight", 
      "attrs": {
        "kernel": "(1, 3)", 
        "no_bias": "True", 
        "num_filter": "256", 
        "pad": "(0, 1)", 
        "stride": "(1, 1)"
      }, 
      "inputs": []
    }, 
    {
      "op": "Convolution", 
      "name": "in3C_conv4_3*1_conv2d", 
      "attrs": {
        "kernel": "(1, 3)", 
        "no_bias": "True", 
        "num_filter": "256", 
        "pad": "(0, 1)", 
        "stride": "(1, 1)"
      }, 
      "inputs": [[1173, 0, 0], [1174, 0, 0]]
    }, 
    {
      "op": "null", 
      "name": "in3C_conv4_3*1_batchnorm_gamma", 
      "attrs": {"fix_gamma": "True"}, 
      "inputs": []
    }, 
    {
      "op": "null", 
      "name": "in3C_conv4_3*1_batchnorm_beta", 
      "attrs": {"fix_gamma": "True"}, 
      "inputs": []
    }, 
    {
      "op": "null", 
      "name": "in3C_conv4_3*1_batchnorm_moving_mean", 
      "attrs": {
        "__init__": "[\"zero\", {}]", 
        "fix_gamma": "True"
      }, 
      "inputs": []
    }, 
    {
      "op": "null", 
      "name": "in3C_conv4_3*1_batchnorm_moving_var", 
      "attrs": {
        "__init__": "[\"one\", {}]", 
        "fix_gamma": "True"
      }, 
      "inputs": []
    }, 
    {
      "op": "BatchNorm", 
      "name": "in3C_conv4_3*1_batchnorm", 
      "attrs": {"fix_gamma": "True"}, 
      "inputs": [[1175, 0, 0], [1176, 0, 0], [1177, 0, 0], [1178, 0, 1], [1179, 0, 1]]
    }, 
    {
      "op": "Activation", 
      "name": "in3C_conv4_3*1_relu", 
      "attrs": {"act_type": "relu"}, 
      "inputs": [[1180, 0, 0]]
    }, 
    {
      "op": "null", 
      "name": "in3C_conv5_1*3_conv2d_weight", 
      "attrs": {
        "kernel": "(3, 1)", 
        "no_bias": "True", 
        "num_filter": "256", 
        "pad": "(1, 0)", 
        "stride": "(1, 1)"
      }, 
      "inputs": []
    }, 
    {
      "op": "Convolution", 
      "name": "in3C_conv5_1*3_conv2d", 
      "attrs": {
        "kernel": "(3, 1)", 
        "no_bias": "True", 
        "num_filter": "256", 
        "pad": "(1, 0)", 
        "stride": "(1, 1)"
      }, 
      "inputs": [[1173, 0, 0], [1182, 0, 0]]
    }, 
    {
      "op": "null", 
      "name": "in3C_conv5_1*3_batchnorm_gamma", 
      "attrs": {"fix_gamma": "True"}, 
      "inputs": []
    }, 
    {
      "op": "null", 
      "name": "in3C_conv5_1*3_batchnorm_beta", 
      "attrs": {"fix_gamma": "True"}, 
      "inputs": []
    }, 
    {
      "op": "null", 
      "name": "in3C_conv5_1*3_batchnorm_moving_mean", 
      "attrs": {
        "__init__": "[\"zero\", {}]", 
        "fix_gamma": "True"
      }, 
      "inputs": []
    }, 
    {
      "op": "null", 
      "name": "in3C_conv5_1*3_batchnorm_moving_var", 
      "attrs": {
        "__init__": "[\"one\", {}]", 
        "fix_gamma": "True"
      }, 
      "inputs": []
    }, 
    {
      "op": "BatchNorm", 
      "name": "in3C_conv5_1*3_batchnorm", 
      "attrs": {"fix_gamma": "True"}, 
      "inputs": [[1183, 0, 0], [1184, 0, 0], [1185, 0, 0], [1186, 0, 1], [1187, 0, 1]]
    }, 
    {
      "op": "Activation", 
      "name": "in3C_conv5_1*3_relu", 
      "attrs": {"act_type": "relu"}, 
      "inputs": [[1188, 0, 0]]
    }, 
    {
      "op": "null", 
      "name": "in3C_conv6_1*1_conv2d_weight", 
      "attrs": {
        "kernel": "(1, 1)", 
        "no_bias": "True", 
        "num_filter": "384", 
        "pad": "(0, 0)", 
        "stride": "(1, 1)"
      }, 
      "inputs": []
    }, 
    {
      "op": "Convolution", 
      "name": "in3C_conv6_1*1_conv2d", 
      "attrs": {
        "kernel": "(1, 1)", 
        "no_bias": "True", 
        "num_filter": "384", 
        "pad": "(0, 0)", 
        "stride": "(1, 1)"
      }, 
      "inputs": [[1148, 0, 0], [1190, 0, 0]]
    }, 
    {
      "op": "null", 
      "name": "in3C_conv6_1*1_batchnorm_gamma", 
      "attrs": {"fix_gamma": "True"}, 
      "inputs": []
    }, 
    {
      "op": "null", 
      "name": "in3C_conv6_1*1_batchnorm_beta", 
      "attrs": {"fix_gamma": "True"}, 
      "inputs": []
    }, 
    {
      "op": "null", 
      "name": "in3C_conv6_1*1_batchnorm_moving_mean", 
      "attrs": {
        "__init__": "[\"zero\", {}]", 
        "fix_gamma": "True"
      }, 
      "inputs": []
    }, 
    {
      "op": "null", 
      "name": "in3C_conv6_1*1_batchnorm_moving_var", 
      "attrs": {
        "__init__": "[\"one\", {}]", 
        "fix_gamma": "True"
      }, 
      "inputs": []
    }, 
    {
      "op": "BatchNorm", 
      "name": "in3C_conv6_1*1_batchnorm", 
      "attrs": {"fix_gamma": "True"}, 
      "inputs": [[1191, 0, 0], [1192, 0, 0], [1193, 0, 0], [1194, 0, 1], [1195, 0, 1]]
    }, 
    {
      "op": "Activation", 
      "name": "in3C_conv6_1*1_relu", 
      "attrs": {"act_type": "relu"}, 
      "inputs": [[1196, 0, 0]]
    }, 
    {
      "op": "null", 
      "name": "in3C_conv7_1*3_conv2d_weight", 
      "attrs": {
        "kernel": "(1, 3)", 
        "no_bias": "True", 
        "num_filter": "448", 
        "pad": "(0, 1)", 
        "stride": "(1, 1)"
      }, 
      "inputs": []
    }, 
    {
      "op": "Convolution", 
      "name": "in3C_conv7_1*3_conv2d", 
      "attrs": {
        "kernel": "(1, 3)", 
        "no_bias": "True", 
        "num_filter": "448", 
        "pad": "(0, 1)", 
        "stride": "(1, 1)"
      }, 
      "inputs": [[1197, 0, 0], [1198, 0, 0]]
    }, 
    {
      "op": "null", 
      "name": "in3C_conv7_1*3_batchnorm_gamma", 
      "attrs": {"fix_gamma": "True"}, 
      "inputs": []
    }, 
    {
      "op": "null", 
      "name": "in3C_conv7_1*3_batchnorm_beta", 
      "attrs": {"fix_gamma": "True"}, 
      "inputs": []
    }, 
    {
      "op": "null", 
      "name": "in3C_conv7_1*3_batchnorm_moving_mean", 
      "attrs": {
        "__init__": "[\"zero\", {}]", 
        "fix_gamma": "True"
      }, 
      "inputs": []
    }, 
    {
      "op": "null", 
      "name": "in3C_conv7_1*3_batchnorm_moving_var", 
      "attrs": {
        "__init__": "[\"one\", {}]", 
        "fix_gamma": "True"
      }, 
      "inputs": []
    }, 
    {
      "op": "BatchNorm", 
      "name": "in3C_conv7_1*3_batchnorm", 
      "attrs": {"fix_gamma": "True"}, 
      "inputs": [[1199, 0, 0], [1200, 0, 0], [1201, 0, 0], [1202, 0, 1], [1203, 0, 1]]
    }, 
    {
      "op": "Activation", 
      "name": "in3C_conv7_1*3_relu", 
      "attrs": {"act_type": "relu"}, 
      "inputs": [[1204, 0, 0]]
    }, 
    {
      "op": "null", 
      "name": "in3C_conv8_3*1_conv2d_weight", 
      "attrs": {
        "kernel": "(3, 1)", 
        "no_bias": "True", 
        "num_filter": "512", 
        "pad": "(1, 0)", 
        "stride": "(1, 1)"
      }, 
      "inputs": []
    }, 
    {
      "op": "Convolution", 
      "name": "in3C_conv8_3*1_conv2d", 
      "attrs": {
        "kernel": "(3, 1)", 
        "no_bias": "True", 
        "num_filter": "512", 
        "pad": "(1, 0)", 
        "stride": "(1, 1)"
      }, 
      "inputs": [[1205, 0, 0], [1206, 0, 0]]
    }, 
    {
      "op": "null", 
      "name": "in3C_conv8_3*1_batchnorm_gamma", 
      "attrs": {"fix_gamma": "True"}, 
      "inputs": []
    }, 
    {
      "op": "null", 
      "name": "in3C_conv8_3*1_batchnorm_beta", 
      "attrs": {"fix_gamma": "True"}, 
      "inputs": []
    }, 
    {
      "op": "null", 
      "name": "in3C_conv8_3*1_batchnorm_moving_mean", 
      "attrs": {
        "__init__": "[\"zero\", {}]", 
        "fix_gamma": "True"
      }, 
      "inputs": []
    }, 
    {
      "op": "null", 
      "name": "in3C_conv8_3*1_batchnorm_moving_var", 
      "attrs": {
        "__init__": "[\"one\", {}]", 
        "fix_gamma": "True"
      }, 
      "inputs": []
    }, 
    {
      "op": "BatchNorm", 
      "name": "in3C_conv8_3*1_batchnorm", 
      "attrs": {"fix_gamma": "True"}, 
      "inputs": [[1207, 0, 0], [1208, 0, 0], [1209, 0, 0], [1210, 0, 1], [1211, 0, 1]]
    }, 
    {
      "op": "Activation", 
      "name": "in3C_conv8_3*1_relu", 
      "attrs": {"act_type": "relu"}, 
      "inputs": [[1212, 0, 0]]
    }, 
    {
      "op": "null", 
      "name": "in3C_conv9_1*3_conv2d_weight", 
      "attrs": {
        "kernel": "(3, 1)", 
        "no_bias": "True", 
        "num_filter": "256", 
        "pad": "(1, 0)", 
        "stride": "(1, 1)"
      }, 
      "inputs": []
    }, 
    {
      "op": "Convolution", 
      "name": "in3C_conv9_1*3_conv2d", 
      "attrs": {
        "kernel": "(3, 1)", 
        "no_bias": "True", 
        "num_filter": "256", 
        "pad": "(1, 0)", 
        "stride": "(1, 1)"
      }, 
      "inputs": [[1213, 0, 0], [1214, 0, 0]]
    }, 
    {
      "op": "null", 
      "name": "in3C_conv9_1*3_batchnorm_gamma", 
      "attrs": {"fix_gamma": "True"}, 
      "inputs": []
    }, 
    {
      "op": "null", 
      "name": "in3C_conv9_1*3_batchnorm_beta", 
      "attrs": {"fix_gamma": "True"}, 
      "inputs": []
    }, 
    {
      "op": "null", 
      "name": "in3C_conv9_1*3_batchnorm_moving_mean", 
      "attrs": {
        "__init__": "[\"zero\", {}]", 
        "fix_gamma": "True"
      }, 
      "inputs": []
    }, 
    {
      "op": "null", 
      "name": "in3C_conv9_1*3_batchnorm_moving_var", 
      "attrs": {
        "__init__": "[\"one\", {}]", 
        "fix_gamma": "True"
      }, 
      "inputs": []
    }, 
    {
      "op": "BatchNorm", 
      "name": "in3C_conv9_1*3_batchnorm", 
      "attrs": {"fix_gamma": "True"}, 
      "inputs": [[1215, 0, 0], [1216, 0, 0], [1217, 0, 0], [1218, 0, 1], [1219, 0, 1]]
    }, 
    {
      "op": "Activation", 
      "name": "in3C_conv9_1*3_relu", 
      "attrs": {"act_type": "relu"}, 
      "inputs": [[1220, 0, 0]]
    }, 
    {
      "op": "null", 
      "name": "in3C_conv10_3*1_conv2d_weight", 
      "attrs": {
        "kernel": "(1, 3)", 
        "no_bias": "True", 
        "num_filter": "256", 
        "pad": "(0, 1)", 
        "stride": "(1, 1)"
      }, 
      "inputs": []
    }, 
    {
      "op": "Convolution", 
      "name": "in3C_conv10_3*1_conv2d", 
      "attrs": {
        "kernel": "(1, 3)", 
        "no_bias": "True", 
        "num_filter": "256", 
        "pad": "(0, 1)", 
        "stride": "(1, 1)"
      }, 
      "inputs": [[1213, 0, 0], [1222, 0, 0]]
    }, 
    {
      "op": "null", 
      "name": "in3C_conv10_3*1_batchnorm_gamma", 
      "attrs": {"fix_gamma": "True"}, 
      "inputs": []
    }, 
    {
      "op": "null", 
      "name": "in3C_conv10_3*1_batchnorm_beta", 
      "attrs": {"fix_gamma": "True"}, 
      "inputs": []
    }, 
    {
      "op": "null", 
      "name": "in3C_conv10_3*1_batchnorm_moving_mean", 
      "attrs": {
        "__init__": "[\"zero\", {}]", 
        "fix_gamma": "True"
      }, 
      "inputs": []
    }, 
    {
      "op": "null", 
      "name": "in3C_conv10_3*1_batchnorm_moving_var", 
      "attrs": {
        "__init__": "[\"one\", {}]", 
        "fix_gamma": "True"
      }, 
      "inputs": []
    }, 
    {
      "op": "BatchNorm", 
      "name": "in3C_conv10_3*1_batchnorm", 
      "attrs": {"fix_gamma": "True"}, 
      "inputs": [[1223, 0, 0], [1224, 0, 0], [1225, 0, 0], [1226, 0, 1], [1227, 0, 1]]
    }, 
    {
      "op": "Activation", 
      "name": "in3C_conv10_3*1_relu", 
      "attrs": {"act_type": "relu"}, 
      "inputs": [[1228, 0, 0]]
    }, 
    {
      "op": "Concat", 
      "name": "in3C_concat", 
      "attrs": {"num_args": "6"}, 
      "inputs": [[1157, 0, 0], [1165, 0, 0], [1181, 0, 0], [1189, 0, 0], [1221, 0, 0], [1229, 0, 0]]
    }, 
    {
      "op": "Pooling", 
      "name": "global_avgpool", 
      "attrs": {
        "kernel": "(8, 8)", 
        "pad": "(1, 1)", 
        "pool_type": "avg"
      }, 
      "inputs": [[1230, 0, 0]]
    }, 
    {
      "op": "Dropout", 
      "name": "dropout0", 
      "attrs": {"p": "0.2"}, 
      "inputs": [[1231, 0, 0]]
    }, 
    {
      "op": "Flatten", 
      "name": "flatten", 
      "inputs": [[1232, 0, 0]]
    }, 
    {
      "op": "null", 
      "name": "fc1_weight", 
      "attrs": {"num_hidden": "1000"}, 
      "inputs": []
    }, 
    {
      "op": "null", 
      "name": "fc1_bias", 
      "attrs": {"num_hidden": "1000"}, 
      "inputs": []
    }, 
    {
      "op": "FullyConnected", 
      "name": "fc1", 
      "attrs": {"num_hidden": "1000"}, 
      "inputs": [[1233, 0, 0], [1234, 0, 0], [1235, 0, 0]]
    }, 
    {
      "op": "null", 
      "name": "softmax_label", 
      "inputs": []
    }, 
    {
      "op": "SoftmaxOutput", 
      "name": "softmax", 
      "inputs": [[1236, 0, 0], [1237, 0, 0]]
    }
  ], 
  "arg_nodes": [
    0, 
    2, 
    4, 
    5, 
    6, 
    7, 
    10, 
    12, 
    13, 
    14, 
    15, 
    18, 
    20, 
    21, 
    22, 
    23, 
    27, 
    29, 
    30, 
    31, 
    32, 
    36, 
    38, 
    39, 
    40, 
    41, 
    44, 
    46, 
    47, 
    48, 
    49, 
    52, 
    54, 
    55, 
    56, 
    57, 
    60, 
    62, 
    63, 
    64, 
    65, 
    68, 
    70, 
    71, 
    72, 
    73, 
    76, 
    78, 
    79, 
    80, 
    81, 
    85, 
    87, 
    88, 
    89, 
    90, 
    96, 
    98, 
    99, 
    100, 
    101, 
    104, 
    106, 
    107, 
    108, 
    109, 
    112, 
    114, 
    115, 
    116, 
    117, 
    120, 
    122, 
    123, 
    124, 
    125, 
    128, 
    130, 
    131, 
    132, 
    133, 
    136, 
    138, 
    139, 
    140, 
    141, 
    144, 
    146, 
    147, 
    148, 
    149, 
    154, 
    156, 
    157, 
    158, 
    159, 
    162, 
    164, 
    165, 
    166, 
    167, 
    170, 
    172, 
    173, 
    174, 
    175, 
    178, 
    180, 
    181, 
    182, 
    183, 
    186, 
    188, 
    189, 
    190, 
    191, 
    194, 
    196, 
    197, 
    198, 
    199, 
    202, 
    204, 
    205, 
    206, 
    207, 
    212, 
    214, 
    215, 
    216, 
    217, 
    220, 
    222, 
    223, 
    224, 
    225, 
    228, 
    230, 
    231, 
    232, 
    233, 
    236, 
    238, 
    239, 
    240, 
    241, 
    244, 
    246, 
    247, 
    248, 
    249, 
    252, 
    254, 
    255, 
    256, 
    257, 
    260, 
    262, 
    263, 
    264, 
    265, 
    270, 
    272, 
    273, 
    274, 
    275, 
    278, 
    280, 
    281, 
    282, 
    283, 
    286, 
    288, 
    289, 
    290, 
    291, 
    294, 
    296, 
    297, 
    298, 
    299, 
    302, 
    304, 
    305, 
    306, 
    307, 
    310, 
    312, 
    313, 
    314, 
    315, 
    318, 
    320, 
    321, 
    322, 
    323, 
    328, 
    330, 
    331, 
    332, 
    333, 
    336, 
    338, 
    339, 
    340, 
    341, 
    344, 
    346, 
    347, 
    348, 
    349, 
    352, 
    354, 
    355, 
    356, 
    357, 
    362, 
    364, 
    365, 
    366, 
    367, 
    370, 
    372, 
    373, 
    374, 
    375, 
    378, 
    380, 
    381, 
    382, 
    383, 
    386, 
    388, 
    389, 
    390, 
    391, 
    394, 
    396, 
    397, 
    398, 
    399, 
    402, 
    404, 
    405, 
    406, 
    407, 
    410, 
    412, 
    413, 
    414, 
    415, 
    418, 
    420, 
    421, 
    422, 
    423, 
    426, 
    428, 
    429, 
    430, 
    431, 
    434, 
    436, 
    437, 
    438, 
    439, 
    444, 
    446, 
    447, 
    448, 
    449, 
    452, 
    454, 
    455, 
    456, 
    457, 
    460, 
    462, 
    463, 
    464, 
    465, 
    468, 
    470, 
    471, 
    472, 
    473, 
    476, 
    478, 
    479, 
    480, 
    481, 
    484, 
    486, 
    487, 
    488, 
    489, 
    492, 
    494, 
    495, 
    496, 
    497, 
    500, 
    502, 
    503, 
    504, 
    505, 
    508, 
    510, 
    511, 
    512, 
    513, 
    516, 
    518, 
    519, 
    520, 
    521, 
    526, 
    528, 
    529, 
    530, 
    531, 
    534, 
    536, 
    537, 
    538, 
    539, 
    542, 
    544, 
    545, 
    546, 
    547, 
    550, 
    552, 
    553, 
    554, 
    555, 
    558, 
    560, 
    561, 
    562, 
    563, 
    566, 
    568, 
    569, 
    570, 
    571, 
    574, 
    576, 
    577, 
    578, 
    579, 
    582, 
    584, 
    585, 
    586, 
    587, 
    590, 
    592, 
    593, 
    594, 
    595, 
    598, 
    600, 
    601, 
    602, 
    603, 
    608, 
    610, 
    611, 
    612, 
    613, 
    616, 
    618, 
    619, 
    620, 
    621, 
    624, 
    626, 
    627, 
    628, 
    629, 
    632, 
    634, 
    635, 
    636, 
    637, 
    640, 
    642, 
    643, 
    644, 
    645, 
    648, 
    650, 
    651, 
    652, 
    653, 
    656, 
    658, 
    659, 
    660, 
    661, 
    664, 
    666, 
    667, 
    668, 
    669, 
    672, 
    674, 
    675, 
    676, 
    677, 
    680, 
    682, 
    683, 
    684, 
    685, 
    690, 
    692, 
    693, 
    694, 
    695, 
    698, 
    700, 
    701, 
    702, 
    703, 
    706, 
    708, 
    709, 
    710, 
    711, 
    714, 
    716, 
    717, 
    718, 
    719, 
    722, 
    724, 
    725, 
    726, 
    727, 
    730, 
    732, 
    733, 
    734, 
    735, 
    738, 
    740, 
    741, 
    742, 
    743, 
    746, 
    748, 
    749, 
    750, 
    751, 
    754, 
    756, 
    757, 
    758, 
    759, 
    762, 
    764, 
    765, 
    766, 
    767, 
    772, 
    774, 
    775, 
    776, 
    777, 
    780, 
    782, 
    783, 
    784, 
    785, 
    788, 
    790, 
    791, 
    792, 
    793, 
    796, 
    798, 
    799, 
    800, 
    801, 
    804, 
    806, 
    807, 
    808, 
    809, 
    812, 
    814, 
    815, 
    816, 
    817, 
    820, 
    822, 
    823, 
    824, 
    825, 
    828, 
    830, 
    831, 
    832, 
    833, 
    836, 
    838, 
    839, 
    840, 
    841, 
    844, 
    846, 
    847, 
    848, 
    849, 
    854, 
    856, 
    857, 
    858, 
    859, 
    862, 
    864, 
    865, 
    866, 
    867, 
    870, 
    872, 
    873, 
    874, 
    875, 
    878, 
    880, 
    881, 
    882, 
    883, 
    886, 
    888, 
    889, 
    890, 
    891, 
    894, 
    896, 
    897, 
    898, 
    899, 
    902, 
    904, 
    905, 
    906, 
    907, 
    910, 
    912, 
    913, 
    914, 
    915, 
    918, 
    920, 
    921, 
    922, 
    923, 
    926, 
    928, 
    929, 
    930, 
    931, 
    936, 
    938, 
    939, 
    940, 
    941, 
    944, 
    946, 
    947, 
    948, 
    949, 
    952, 
    954, 
    955, 
    956, 
    957, 
    960, 
    962, 
    963, 
    964, 
    965, 
    968, 
    970, 
    971, 
    972, 
    973, 
    976, 
    978, 
    979, 
    980, 
    981, 
    986, 
    988, 
    989, 
    990, 
    991, 
    994, 
    996, 
    997, 
    998, 
    999, 
    1002, 
    1004, 
    1005, 
    1006, 
    1007, 
    1010, 
    1012, 
    1013, 
    1014, 
    1015, 
    1018, 
    1020, 
    1021, 
    1022, 
    1023, 
    1026, 
    1028, 
    1029, 
    1030, 
    1031, 
    1034, 
    1036, 
    1037, 
    1038, 
    1039, 
    1042, 
    1044, 
    1045, 
    1046, 
    1047, 
    1050, 
    1052, 
    1053, 
    1054, 
    1055, 
    1058, 
    1060, 
    1061, 
    1062, 
    1063, 
    1068, 
    1070, 
    1071, 
    1072, 
    1073, 
    1076, 
    1078, 
    1079, 
    1080, 
    1081, 
    1084, 
    1086, 
    1087, 
    1088, 
    1089, 
    1092, 
    1094, 
    1095, 
    1096, 
    1097, 
    1100, 
    1102, 
    1103, 
    1104, 
    1105, 
    1108, 
    1110, 
    1111, 
    1112, 
    1113, 
    1116, 
    1118, 
    1119, 
    1120, 
    1121, 
    1124, 
    1126, 
    1127, 
    1128, 
    1129, 
    1132, 
    1134, 
    1135, 
    1136, 
    1137, 
    1140, 
    1142, 
    1143, 
    1144, 
    1145, 
    1150, 
    1152, 
    1153, 
    1154, 
    1155, 
    1158, 
    1160, 
    1161, 
    1162, 
    1163, 
    1166, 
    1168, 
    1169, 
    1170, 
    1171, 
    1174, 
    1176, 
    1177, 
    1178, 
    1179, 
    1182, 
    1184, 
    1185, 
    1186, 
    1187, 
    1190, 
    1192, 
    1193, 
    1194, 
    1195, 
    1198, 
    1200, 
    1201, 
    1202, 
    1203, 
    1206, 
    1208, 
    1209, 
    1210, 
    1211, 
    1214, 
    1216, 
    1217, 
    1218, 
    1219, 
    1222, 
    1224, 
    1225, 
    1226, 
    1227, 
    1234, 
    1235, 
    1237
  ], 
  "node_row_ptr": [
    0, 
    1, 
    2, 
    3, 
    4, 
    5, 
    6, 
    7, 
    8, 
    11, 
    12, 
    13, 
    14, 
    15, 
    16, 
    17, 
    18, 
    21, 
    22, 
    23, 
    24, 
    25, 
    26, 
    27, 
    28, 
    31, 
    32, 
    33, 
    34, 
    35, 
    36, 
    37, 
    38, 
    39, 
    42, 
    43, 
    44, 
    45, 
    46, 
    47, 
    48, 
    49, 
    50, 
    53, 
    54, 
    55, 
    56, 
    57, 
    58, 
    59, 
    60, 
    63, 
    64, 
    65, 
    66, 
    67, 
    68, 
    69, 
    70, 
    73, 
    74, 
    75, 
    76, 
    77, 
    78, 
    79, 
    80, 
    83, 
    84, 
    85, 
    86, 
    87, 
    88, 
    89, 
    90, 
    93, 
    94, 
    95, 
    96, 
    97, 
    98, 
    99, 
    100, 
    103, 
    104, 
    105, 
    106, 
    107, 
    108, 
    109, 
    110, 
    111, 
    114, 
    115, 
    116, 
    117, 
    118, 
    119, 
    120, 
    121, 
    122, 
    123, 
    124, 
    127, 
    128, 
    129, 
    130, 
    131, 
    132, 
    133, 
    134, 
    137, 
    138, 
    139, 
    140, 
    141, 
    142, 
    143, 
    144, 
    147, 
    148, 
    149, 
    150, 
    151, 
    152, 
    153, 
    154, 
    157, 
    158, 
    159, 
    160, 
    161, 
    162, 
    163, 
    164, 
    167, 
    168, 
    169, 
    170, 
    171, 
    172, 
    173, 
    174, 
    177, 
    178, 
    179, 
    180, 
    181, 
    182, 
    183, 
    184, 
    187, 
    188, 
    189, 
    190, 
    191, 
    192, 
    193, 
    194, 
    195, 
    196, 
    199, 
    200, 
    201, 
    202, 
    203, 
    204, 
    205, 
    206, 
    209, 
    210, 
    211, 
    212, 
    213, 
    214, 
    215, 
    216, 
    219, 
    220, 
    221, 
    222, 
    223, 
    224, 
    225, 
    226, 
    229, 
    230, 
    231, 
    232, 
    233, 
    234, 
    235, 
    236, 
    239, 
    240, 
    241, 
    242, 
    243, 
    244, 
    245, 
    246, 
    249, 
    250, 
    251, 
    252, 
    253, 
    254, 
    255, 
    256, 
    259, 
    260, 
    261, 
    262, 
    263, 
    264, 
    265, 
    266, 
    267, 
    268, 
    271, 
    272, 
    273, 
    274, 
    275, 
    276, 
    277, 
    278, 
    281, 
    282, 
    283, 
    284, 
    285, 
    286, 
    287, 
    288, 
    291, 
    292, 
    293, 
    294, 
    295, 
    296, 
    297, 
    298, 
    301, 
    302, 
    303, 
    304, 
    305, 
    306, 
    307, 
    308, 
    311, 
    312, 
    313, 
    314, 
    315, 
    316, 
    317, 
    318, 
    321, 
    322, 
    323, 
    324, 
    325, 
    326, 
    327, 
    328, 
    331, 
    332, 
    333, 
    334, 
    335, 
    336, 
    337, 
    338, 
    339, 
    340, 
    343, 
    344, 
    345, 
    346, 
    347, 
    348, 
    349, 
    350, 
    353, 
    354, 
    355, 
    356, 
    357, 
    358, 
    359, 
    360, 
    363, 
    364, 
    365, 
    366, 
    367, 
    368, 
    369, 
    370, 
    373, 
    374, 
    375, 
    376, 
    377, 
    378, 
    379, 
    380, 
    383, 
    384, 
    385, 
    386, 
    387, 
    388, 
    389, 
    390, 
    393, 
    394, 
    395, 
    396, 
    397, 
    398, 
    399, 
    400, 
    403, 
    404, 
    405, 
    406, 
    407, 
    408, 
    409, 
    410, 
    411, 
    412, 
    415, 
    416, 
    417, 
    418, 
    419, 
    420, 
    421, 
    422, 
    425, 
    426, 
    427, 
    428, 
    429, 
    430, 
    431, 
    432, 
    435, 
    436, 
    437, 
    438, 
    439, 
    440, 
    441, 
    442, 
    445, 
    446, 
    447, 
    448, 
    449, 
    450, 
    451, 
    452, 
    453, 
    454, 
    457, 
    458, 
    459, 
    460, 
    461, 
    462, 
    463, 
    464, 
    467, 
    468, 
    469, 
    470, 
    471, 
    472, 
    473, 
    474, 
    477, 
    478, 
    479, 
    480, 
    481, 
    482, 
    483, 
    484, 
    487, 
    488, 
    489, 
    490, 
    491, 
    492, 
    493, 
    494, 
    497, 
    498, 
    499, 
    500, 
    501, 
    502, 
    503, 
    504, 
    507, 
    508, 
    509, 
    510, 
    511, 
    512, 
    513, 
    514, 
    517, 
    518, 
    519, 
    520, 
    521, 
    522, 
    523, 
    524, 
    527, 
    528, 
    529, 
    530, 
    531, 
    532, 
    533, 
    534, 
    537, 
    538, 
    539, 
    540, 
    541, 
    542, 
    543, 
    544, 
    547, 
    548, 
    549, 
    550, 
    551, 
    552, 
    553, 
    554, 
    555, 
    556, 
    559, 
    560, 
    561, 
    562, 
    563, 
    564, 
    565, 
    566, 
    569, 
    570, 
    571, 
    572, 
    573, 
    574, 
    575, 
    576, 
    579, 
    580, 
    581, 
    582, 
    583, 
    584, 
    585, 
    586, 
    589, 
    590, 
    591, 
    592, 
    593, 
    594, 
    595, 
    596, 
    599, 
    600, 
    601, 
    602, 
    603, 
    604, 
    605, 
    606, 
    609, 
    610, 
    611, 
    612, 
    613, 
    614, 
    615, 
    616, 
    619, 
    620, 
    621, 
    622, 
    623, 
    624, 
    625, 
    626, 
    629, 
    630, 
    631, 
    632, 
    633, 
    634, 
    635, 
    636, 
    639, 
    640, 
    641, 
    642, 
    643, 
    644, 
    645, 
    646, 
    649, 
    650, 
    651, 
    652, 
    653, 
    654, 
    655, 
    656, 
    657, 
    658, 
    661, 
    662, 
    663, 
    664, 
    665, 
    666, 
    667, 
    668, 
    671, 
    672, 
    673, 
    674, 
    675, 
    676, 
    677, 
    678, 
    681, 
    682, 
    683, 
    684, 
    685, 
    686, 
    687, 
    688, 
    691, 
    692, 
    693, 
    694, 
    695, 
    696, 
    697, 
    698, 
    701, 
    702, 
    703, 
    704, 
    705, 
    706, 
    707, 
    708, 
    711, 
    712, 
    713, 
    714, 
    715, 
    716, 
    717, 
    718, 
    721, 
    722, 
    723, 
    724, 
    725, 
    726, 
    727, 
    728, 
    731, 
    732, 
    733, 
    734, 
    735, 
    736, 
    737, 
    738, 
    741, 
    742, 
    743, 
    744, 
    745, 
    746, 
    747, 
    748, 
    751, 
    752, 
    753, 
    754, 
    755, 
    756, 
    757, 
    758, 
    759, 
    760, 
    763, 
    764, 
    765, 
    766, 
    767, 
    768, 
    769, 
    770, 
    773, 
    774, 
    775, 
    776, 
    777, 
    778, 
    779, 
    780, 
    783, 
    784, 
    785, 
    786, 
    787, 
    788, 
    789, 
    790, 
    793, 
    794, 
    795, 
    796, 
    797, 
    798, 
    799, 
    800, 
    803, 
    804, 
    805, 
    806, 
    807, 
    808, 
    809, 
    810, 
    813, 
    814, 
    815, 
    816, 
    817, 
    818, 
    819, 
    820, 
    823, 
    824, 
    825, 
    826, 
    827, 
    828, 
    829, 
    830, 
    833, 
    834, 
    835, 
    836, 
    837, 
    838, 
    839, 
    840, 
    843, 
    844, 
    845, 
    846, 
    847, 
    848, 
    849, 
    850, 
    853, 
    854, 
    855, 
    856, 
    857, 
    858, 
    859, 
    860, 
    861, 
    862, 
    865, 
    866, 
    867, 
    868, 
    869, 
    870, 
    871, 
    872, 
    875, 
    876, 
    877, 
    878, 
    879, 
    880, 
    881, 
    882, 
    885, 
    886, 
    887, 
    888, 
    889, 
    890, 
    891, 
    892, 
    895, 
    896, 
    897, 
    898, 
    899, 
    900, 
    901, 
    902, 
    905, 
    906, 
    907, 
    908, 
    909, 
    910, 
    911, 
    912, 
    915, 
    916, 
    917, 
    918, 
    919, 
    920, 
    921, 
    922, 
    925, 
    926, 
    927, 
    928, 
    929, 
    930, 
    931, 
    932, 
    935, 
    936, 
    937, 
    938, 
    939, 
    940, 
    941, 
    942, 
    945, 
    946, 
    947, 
    948, 
    949, 
    950, 
    951, 
    952, 
    955, 
    956, 
    957, 
    958, 
    959, 
    960, 
    961, 
    962, 
    963, 
    964, 
    967, 
    968, 
    969, 
    970, 
    971, 
    972, 
    973, 
    974, 
    977, 
    978, 
    979, 
    980, 
    981, 
    982, 
    983, 
    984, 
    987, 
    988, 
    989, 
    990, 
    991, 
    992, 
    993, 
    994, 
    997, 
    998, 
    999, 
    1000, 
    1001, 
    1002, 
    1003, 
    1004, 
    1007, 
    1008, 
    1009, 
    1010, 
    1011, 
    1012, 
    1013, 
    1014, 
    1017, 
    1018, 
    1019, 
    1020, 
    1021, 
    1022, 
    1023, 
    1024, 
    1027, 
    1028, 
    1029, 
    1030, 
    1031, 
    1032, 
    1033, 
    1034, 
    1037, 
    1038, 
    1039, 
    1040, 
    1041, 
    1042, 
    1043, 
    1044, 
    1047, 
    1048, 
    1049, 
    1050, 
    1051, 
    1052, 
    1053, 
    1054, 
    1057, 
    1058, 
    1059, 
    1060, 
    1061, 
    1062, 
    1063, 
    1064, 
    1065, 
    1066, 
    1069, 
    1070, 
    1071, 
    1072, 
    1073, 
    1074, 
    1075, 
    1076, 
    1079, 
    1080, 
    1081, 
    1082, 
    1083, 
    1084, 
    1085, 
    1086, 
    1089, 
    1090, 
    1091, 
    1092, 
    1093, 
    1094, 
    1095, 
    1096, 
    1099, 
    1100, 
    1101, 
    1102, 
    1103, 
    1104, 
    1105, 
    1106, 
    1109, 
    1110, 
    1111, 
    1112, 
    1113, 
    1114, 
    1115, 
    1116, 
    1119, 
    1120, 
    1121, 
    1122, 
    1123, 
    1124, 
    1125, 
    1126, 
    1129, 
    1130, 
    1131, 
    1132, 
    1133, 
    1134, 
    1135, 
    1136, 
    1139, 
    1140, 
    1141, 
    1142, 
    1143, 
    1144, 
    1145, 
    1146, 
    1149, 
    1150, 
    1151, 
    1152, 
    1153, 
    1154, 
    1155, 
    1156, 
    1159, 
    1160, 
    1161, 
    1162, 
    1163, 
    1164, 
    1165, 
    1166, 
    1167, 
    1168, 
    1171, 
    1172, 
    1173, 
    1174, 
    1175, 
    1176, 
    1177, 
    1178, 
    1181, 
    1182, 
    1183, 
    1184, 
    1185, 
    1186, 
    1187, 
    1188, 
    1191, 
    1192, 
    1193, 
    1194, 
    1195, 
    1196, 
    1197, 
    1198, 
    1201, 
    1202, 
    1203, 
    1204, 
    1205, 
    1206, 
    1207, 
    1208, 
    1211, 
    1212, 
    1213, 
    1214, 
    1215, 
    1216, 
    1217, 
    1218, 
    1221, 
    1222, 
    1223, 
    1224, 
    1225, 
    1226, 
    1227, 
    1228, 
    1229, 
    1230, 
    1233, 
    1234, 
    1235, 
    1236, 
    1237, 
    1238, 
    1239, 
    1240, 
    1243, 
    1244, 
    1245, 
    1246, 
    1247, 
    1248, 
    1249, 
    1250, 
    1253, 
    1254, 
    1255, 
    1256, 
    1257, 
    1258, 
    1259, 
    1260, 
    1263, 
    1264, 
    1265, 
    1266, 
    1267, 
    1268, 
    1269, 
    1270, 
    1273, 
    1274, 
    1275, 
    1276, 
    1277, 
    1278, 
    1279, 
    1280, 
    1283, 
    1284, 
    1285, 
    1286, 
    1287, 
    1288, 
    1289, 
    1290, 
    1293, 
    1294, 
    1295, 
    1296, 
    1297, 
    1298, 
    1299, 
    1300, 
    1303, 
    1304, 
    1305, 
    1306, 
    1307, 
    1308, 
    1309, 
    1310, 
    1313, 
    1314, 
    1315, 
    1316, 
    1317, 
    1318, 
    1319, 
    1320, 
    1323, 
    1324, 
    1325, 
    1326, 
    1327, 
    1328, 
    1329, 
    1330, 
    1331, 
    1332, 
    1335, 
    1336, 
    1337, 
    1338, 
    1339, 
    1340, 
    1341, 
    1342, 
    1345, 
    1346, 
    1347, 
    1348, 
    1349, 
    1350, 
    1351, 
    1352, 
    1355, 
    1356, 
    1357, 
    1358, 
    1359, 
    1360, 
    1361, 
    1362, 
    1365, 
    1366, 
    1367, 
    1368, 
    1369, 
    1370, 
    1371, 
    1372, 
    1375, 
    1376, 
    1377, 
    1378, 
    1379, 
    1380, 
    1381, 
    1382, 
    1385, 
    1386, 
    1387, 
    1388, 
    1389, 
    1390, 
    1391, 
    1392, 
    1395, 
    1396, 
    1397, 
    1398, 
    1399, 
    1400, 
    1401, 
    1402, 
    1405, 
    1406, 
    1407, 
    1408, 
    1409, 
    1410, 
    1411, 
    1412, 
    1415, 
    1416, 
    1417, 
    1418, 
    1419, 
    1420, 
    1421, 
    1422, 
    1425, 
    1426, 
    1427, 
    1428, 
    1429, 
    1430, 
    1431, 
    1432, 
    1433, 
    1434, 
    1437, 
    1438, 
    1439, 
    1440, 
    1441, 
    1442, 
    1443, 
    1444, 
    1447, 
    1448, 
    1449, 
    1450, 
    1451, 
    1452, 
    1453, 
    1454, 
    1457, 
    1458, 
    1459, 
    1460, 
    1461, 
    1462, 
    1463, 
    1464, 
    1467, 
    1468, 
    1469, 
    1470, 
    1471, 
    1472, 
    1473, 
    1474, 
    1477, 
    1478, 
    1479, 
    1480, 
    1481, 
    1482, 
    1483, 
    1484, 
    1487, 
    1488, 
    1489, 
    1490, 
    1491, 
    1492, 
    1493, 
    1494, 
    1497, 
    1498, 
    1499, 
    1500, 
    1501, 
    1502, 
    1503, 
    1504, 
    1507, 
    1508, 
    1509, 
    1510, 
    1511, 
    1512, 
    1513, 
    1514, 
    1517, 
    1518, 
    1519, 
    1520, 
    1521, 
    1522, 
    1523, 
    1524, 
    1527, 
    1528, 
    1529, 
    1530, 
    1532, 
    1533, 
    1534, 
    1535, 
    1536, 
    1537, 
    1538
  ], 
  "heads": [[1238, 0, 0]], 
  "attrs": {"mxnet_version": ["int", 10301]}
}